…
train_df.shape: (713, 30)
valid_df.shape: (179, 30)
/home/junsheng/ViLT/test_pic.py:272: UserWarning: To copy construct from a tensor, it is recommended to use sourceTensor.clone().detach() or sourceTensor.clone().detach().requires_grad_(True), rather than torch.tensor(sourceTensor).
  return torch.tensor(img).to(torch.float), torch.tensor(sensor).to(torch.float),torch.tensor(label).to(torch.float)
torch.Size([32, 3, 384, 384])
torch.Size([32, 1, 17])
torch.Size([32])
No pretrained weights exist or were found for this model. Using random initialization.
cuda:1
0 sensorViLOnlyTransformerSS(
  (token_type_embeddings): Embedding(2, 768)
  (transformer): VisionTransformer(
    (patch_embed): PatchEmbed(
      (proj): Conv2d(3, 768, kernel_size=(32, 32), stride=(32, 32))
    )
    (pos_drop): Dropout(p=0.1, inplace=False)
    (blocks): ModuleList(
      (0): Block(
        (norm1): LayerNorm((768,), eps=1e-06, elementwise_affine=True)
        (attn): Attention(
          (qkv): Linear(in_features=768, out_features=2304, bias=True)
          (attn_drop): Dropout(p=0.0, inplace=False)
          (proj): Linear(in_features=768, out_features=768, bias=True)
          (proj_drop): Dropout(p=0.1, inplace=False)
        )
        (drop_path): Identity()
        (norm2): LayerNorm((768,), eps=1e-06, elementwise_affine=True)
        (mlp): Mlp(
          (fc1): Linear(in_features=768, out_features=3072, bias=True)
          (act): GELU(approximate=none)
          (fc2): Linear(in_features=3072, out_features=768, bias=True)
          (drop): Dropout(p=0.1, inplace=False)
        )
      )
      (1): Block(
        (norm1): LayerNorm((768,), eps=1e-06, elementwise_affine=True)
        (attn): Attention(
          (qkv): Linear(in_features=768, out_features=2304, bias=True)
          (attn_drop): Dropout(p=0.0, inplace=False)
          (proj): Linear(in_features=768, out_features=768, bias=True)
          (proj_drop): Dropout(p=0.1, inplace=False)
        )
        (drop_path): Identity()
        (norm2): LayerNorm((768,), eps=1e-06, elementwise_affine=True)
        (mlp): Mlp(
          (fc1): Linear(in_features=768, out_features=3072, bias=True)
          (act): GELU(approximate=none)
          (fc2): Linear(in_features=3072, out_features=768, bias=True)
          (drop): Dropout(p=0.1, inplace=False)
        )
      )
      (2): Block(
        (norm1): LayerNorm((768,), eps=1e-06, elementwise_affine=True)
        (attn): Attention(
          (qkv): Linear(in_features=768, out_features=2304, bias=True)
          (attn_drop): Dropout(p=0.0, inplace=False)
          (proj): Linear(in_features=768, out_features=768, bias=True)
          (proj_drop): Dropout(p=0.1, inplace=False)
        )
        (drop_path): Identity()
        (norm2): LayerNorm((768,), eps=1e-06, elementwise_affine=True)
        (mlp): Mlp(
          (fc1): Linear(in_features=768, out_features=3072, bias=True)
          (act): GELU(approximate=none)
          (fc2): Linear(in_features=3072, out_features=768, bias=True)
          (drop): Dropout(p=0.1, inplace=False)
        )
      )
      (3): Block(
        (norm1): LayerNorm((768,), eps=1e-06, elementwise_affine=True)
        (attn): Attention(
          (qkv): Linear(in_features=768, out_features=2304, bias=True)
          (attn_drop): Dropout(p=0.0, inplace=False)
          (proj): Linear(in_features=768, out_features=768, bias=True)
          (proj_drop): Dropout(p=0.1, inplace=False)
        )
        (drop_path): Identity()
        (norm2): LayerNorm((768,), eps=1e-06, elementwise_affine=True)
        (mlp): Mlp(
          (fc1): Linear(in_features=768, out_features=3072, bias=True)
          (act): GELU(approximate=none)
          (fc2): Linear(in_features=3072, out_features=768, bias=True)
          (drop): Dropout(p=0.1, inplace=False)
        )
      )
      (4): Block(
        (norm1): LayerNorm((768,), eps=1e-06, elementwise_affine=True)
        (attn): Attention(
          (qkv): Linear(in_features=768, out_features=2304, bias=True)
          (attn_drop): Dropout(p=0.0, inplace=False)
          (proj): Linear(in_features=768, out_features=768, bias=True)
          (proj_drop): Dropout(p=0.1, inplace=False)
        )
        (drop_path): Identity()
        (norm2): LayerNorm((768,), eps=1e-06, elementwise_affine=True)
        (mlp): Mlp(
          (fc1): Linear(in_features=768, out_features=3072, bias=True)
          (act): GELU(approximate=none)
          (fc2): Linear(in_features=3072, out_features=768, bias=True)
          (drop): Dropout(p=0.1, inplace=False)
        )
      )
      (5): Block(
        (norm1): LayerNorm((768,), eps=1e-06, elementwise_affine=True)
        (attn): Attention(
          (qkv): Linear(in_features=768, out_features=2304, bias=True)
          (attn_drop): Dropout(p=0.0, inplace=False)
          (proj): Linear(in_features=768, out_features=768, bias=True)
          (proj_drop): Dropout(p=0.1, inplace=False)
        )
        (drop_path): Identity()
        (norm2): LayerNorm((768,), eps=1e-06, elementwise_affine=True)
        (mlp): Mlp(
          (fc1): Linear(in_features=768, out_features=3072, bias=True)
          (act): GELU(approximate=none)
          (fc2): Linear(in_features=3072, out_features=768, bias=True)
          (drop): Dropout(p=0.1, inplace=False)
        )
      )
      (6): Block(
        (norm1): LayerNorm((768,), eps=1e-06, elementwise_affine=True)
        (attn): Attention(
          (qkv): Linear(in_features=768, out_features=2304, bias=True)
          (attn_drop): Dropout(p=0.0, inplace=False)
          (proj): Linear(in_features=768, out_features=768, bias=True)
          (proj_drop): Dropout(p=0.1, inplace=False)
        )
        (drop_path): Identity()
        (norm2): LayerNorm((768,), eps=1e-06, elementwise_affine=True)
        (mlp): Mlp(
          (fc1): Linear(in_features=768, out_features=3072, bias=True)
          (act): GELU(approximate=none)
          (fc2): Linear(in_features=3072, out_features=768, bias=True)
          (drop): Dropout(p=0.1, inplace=False)
        )
      )
      (7): Block(
        (norm1): LayerNorm((768,), eps=1e-06, elementwise_affine=True)
        (attn): Attention(
          (qkv): Linear(in_features=768, out_features=2304, bias=True)
          (attn_drop): Dropout(p=0.0, inplace=False)
          (proj): Linear(in_features=768, out_features=768, bias=True)
          (proj_drop): Dropout(p=0.1, inplace=False)
        )
        (drop_path): Identity()
        (norm2): LayerNorm((768,), eps=1e-06, elementwise_affine=True)
        (mlp): Mlp(
          (fc1): Linear(in_features=768, out_features=3072, bias=True)
          (act): GELU(approximate=none)
          (fc2): Linear(in_features=3072, out_features=768, bias=True)
          (drop): Dropout(p=0.1, inplace=False)
        )
      )
      (8): Block(
        (norm1): LayerNorm((768,), eps=1e-06, elementwise_affine=True)
        (attn): Attention(
          (qkv): Linear(in_features=768, out_features=2304, bias=True)
          (attn_drop): Dropout(p=0.0, inplace=False)
          (proj): Linear(in_features=768, out_features=768, bias=True)
          (proj_drop): Dropout(p=0.1, inplace=False)
        )
        (drop_path): Identity()
        (norm2): LayerNorm((768,), eps=1e-06, elementwise_affine=True)
        (mlp): Mlp(
          (fc1): Linear(in_features=768, out_features=3072, bias=True)
          (act): GELU(approximate=none)
          (fc2): Linear(in_features=3072, out_features=768, bias=True)
          (drop): Dropout(p=0.1, inplace=False)
        )
      )
      (9): Block(
        (norm1): LayerNorm((768,), eps=1e-06, elementwise_affine=True)
        (attn): Attention(
          (qkv): Linear(in_features=768, out_features=2304, bias=True)
          (attn_drop): Dropout(p=0.0, inplace=False)
          (proj): Linear(in_features=768, out_features=768, bias=True)
          (proj_drop): Dropout(p=0.1, inplace=False)
        )
        (drop_path): Identity()
        (norm2): LayerNorm((768,), eps=1e-06, elementwise_affine=True)
        (mlp): Mlp(
          (fc1): Linear(in_features=768, out_features=3072, bias=True)
          (act): GELU(approximate=none)
          (fc2): Linear(in_features=3072, out_features=768, bias=True)
          (drop): Dropout(p=0.1, inplace=False)
        )
      )
      (10): Block(
        (norm1): LayerNorm((768,), eps=1e-06, elementwise_affine=True)
        (attn): Attention(
          (qkv): Linear(in_features=768, out_features=2304, bias=True)
          (attn_drop): Dropout(p=0.0, inplace=False)
          (proj): Linear(in_features=768, out_features=768, bias=True)
          (proj_drop): Dropout(p=0.1, inplace=False)
        )
        (drop_path): Identity()
        (norm2): LayerNorm((768,), eps=1e-06, elementwise_affine=True)
        (mlp): Mlp(
          (fc1): Linear(in_features=768, out_features=3072, bias=True)
          (act): GELU(approximate=none)
          (fc2): Linear(in_features=3072, out_features=768, bias=True)
          (drop): Dropout(p=0.1, inplace=False)
        )
      )
      (11): Block(
        (norm1): LayerNorm((768,), eps=1e-06, elementwise_affine=True)
        (attn): Attention(
          (qkv): Linear(in_features=768, out_features=2304, bias=True)
          (attn_drop): Dropout(p=0.0, inplace=False)
          (proj): Linear(in_features=768, out_features=768, bias=True)
          (proj_drop): Dropout(p=0.1, inplace=False)
        )
        (drop_path): Identity()
        (norm2): LayerNorm((768,), eps=1e-06, elementwise_affine=True)
        (mlp): Mlp(
          (fc1): Linear(in_features=768, out_features=3072, bias=True)
          (act): GELU(approximate=none)
          (fc2): Linear(in_features=3072, out_features=768, bias=True)
          (drop): Dropout(p=0.1, inplace=False)
        )
      )
    )
    (norm): LayerNorm((768,), eps=1e-06, elementwise_affine=True)
  )
  (dense): Linear(in_features=768, out_features=768, bias=True)
  (activation): Tanh()
  (pooler): Pooler(
    (dense): Linear(in_features=768, out_features=768, bias=True)
    (activation): Tanh()
  )
  (classifier): Linear(in_features=768, out_features=1, bias=True)
)
1 Embedding(2, 768)
2 VisionTransformer(
  (patch_embed): PatchEmbed(
    (proj): Conv2d(3, 768, kernel_size=(32, 32), stride=(32, 32))
  )
  (pos_drop): Dropout(p=0.1, inplace=False)
  (blocks): ModuleList(
    (0): Block(
      (norm1): LayerNorm((768,), eps=1e-06, elementwise_affine=True)
      (attn): Attention(
        (qkv): Linear(in_features=768, out_features=2304, bias=True)
        (attn_drop): Dropout(p=0.0, inplace=False)
        (proj): Linear(in_features=768, out_features=768, bias=True)
        (proj_drop): Dropout(p=0.1, inplace=False)
      )
      (drop_path): Identity()
      (norm2): LayerNorm((768,), eps=1e-06, elementwise_affine=True)
      (mlp): Mlp(
        (fc1): Linear(in_features=768, out_features=3072, bias=True)
        (act): GELU(approximate=none)
        (fc2): Linear(in_features=3072, out_features=768, bias=True)
        (drop): Dropout(p=0.1, inplace=False)
      )
    )
    (1): Block(
      (norm1): LayerNorm((768,), eps=1e-06, elementwise_affine=True)
      (attn): Attention(
        (qkv): Linear(in_features=768, out_features=2304, bias=True)
        (attn_drop): Dropout(p=0.0, inplace=False)
        (proj): Linear(in_features=768, out_features=768, bias=True)
        (proj_drop): Dropout(p=0.1, inplace=False)
      )
      (drop_path): Identity()
      (norm2): LayerNorm((768,), eps=1e-06, elementwise_affine=True)
      (mlp): Mlp(
        (fc1): Linear(in_features=768, out_features=3072, bias=True)
        (act): GELU(approximate=none)
        (fc2): Linear(in_features=3072, out_features=768, bias=True)
        (drop): Dropout(p=0.1, inplace=False)
      )
    )
    (2): Block(
      (norm1): LayerNorm((768,), eps=1e-06, elementwise_affine=True)
      (attn): Attention(
        (qkv): Linear(in_features=768, out_features=2304, bias=True)
        (attn_drop): Dropout(p=0.0, inplace=False)
        (proj): Linear(in_features=768, out_features=768, bias=True)
        (proj_drop): Dropout(p=0.1, inplace=False)
      )
      (drop_path): Identity()
      (norm2): LayerNorm((768,), eps=1e-06, elementwise_affine=True)
      (mlp): Mlp(
        (fc1): Linear(in_features=768, out_features=3072, bias=True)
        (act): GELU(approximate=none)
        (fc2): Linear(in_features=3072, out_features=768, bias=True)
        (drop): Dropout(p=0.1, inplace=False)
      )
    )
    (3): Block(
      (norm1): LayerNorm((768,), eps=1e-06, elementwise_affine=True)
      (attn): Attention(
        (qkv): Linear(in_features=768, out_features=2304, bias=True)
        (attn_drop): Dropout(p=0.0, inplace=False)
        (proj): Linear(in_features=768, out_features=768, bias=True)
        (proj_drop): Dropout(p=0.1, inplace=False)
      )
      (drop_path): Identity()
      (norm2): LayerNorm((768,), eps=1e-06, elementwise_affine=True)
      (mlp): Mlp(
        (fc1): Linear(in_features=768, out_features=3072, bias=True)
        (act): GELU(approximate=none)
        (fc2): Linear(in_features=3072, out_features=768, bias=True)
        (drop): Dropout(p=0.1, inplace=False)
      )
    )
    (4): Block(
      (norm1): LayerNorm((768,), eps=1e-06, elementwise_affine=True)
      (attn): Attention(
        (qkv): Linear(in_features=768, out_features=2304, bias=True)
        (attn_drop): Dropout(p=0.0, inplace=False)
        (proj): Linear(in_features=768, out_features=768, bias=True)
        (proj_drop): Dropout(p=0.1, inplace=False)
      )
      (drop_path): Identity()
      (norm2): LayerNorm((768,), eps=1e-06, elementwise_affine=True)
      (mlp): Mlp(
        (fc1): Linear(in_features=768, out_features=3072, bias=True)
        (act): GELU(approximate=none)
        (fc2): Linear(in_features=3072, out_features=768, bias=True)
        (drop): Dropout(p=0.1, inplace=False)
      )
    )
    (5): Block(
      (norm1): LayerNorm((768,), eps=1e-06, elementwise_affine=True)
      (attn): Attention(
        (qkv): Linear(in_features=768, out_features=2304, bias=True)
        (attn_drop): Dropout(p=0.0, inplace=False)
        (proj): Linear(in_features=768, out_features=768, bias=True)
        (proj_drop): Dropout(p=0.1, inplace=False)
      )
      (drop_path): Identity()
      (norm2): LayerNorm((768,), eps=1e-06, elementwise_affine=True)
      (mlp): Mlp(
        (fc1): Linear(in_features=768, out_features=3072, bias=True)
        (act): GELU(approximate=none)
        (fc2): Linear(in_features=3072, out_features=768, bias=True)
        (drop): Dropout(p=0.1, inplace=False)
      )
    )
    (6): Block(
      (norm1): LayerNorm((768,), eps=1e-06, elementwise_affine=True)
      (attn): Attention(
        (qkv): Linear(in_features=768, out_features=2304, bias=True)
        (attn_drop): Dropout(p=0.0, inplace=False)
        (proj): Linear(in_features=768, out_features=768, bias=True)
        (proj_drop): Dropout(p=0.1, inplace=False)
      )
      (drop_path): Identity()
      (norm2): LayerNorm((768,), eps=1e-06, elementwise_affine=True)
      (mlp): Mlp(
        (fc1): Linear(in_features=768, out_features=3072, bias=True)
        (act): GELU(approximate=none)
        (fc2): Linear(in_features=3072, out_features=768, bias=True)
        (drop): Dropout(p=0.1, inplace=False)
      )
    )
    (7): Block(
      (norm1): LayerNorm((768,), eps=1e-06, elementwise_affine=True)
      (attn): Attention(
        (qkv): Linear(in_features=768, out_features=2304, bias=True)
        (attn_drop): Dropout(p=0.0, inplace=False)
        (proj): Linear(in_features=768, out_features=768, bias=True)
        (proj_drop): Dropout(p=0.1, inplace=False)
      )
      (drop_path): Identity()
      (norm2): LayerNorm((768,), eps=1e-06, elementwise_affine=True)
      (mlp): Mlp(
        (fc1): Linear(in_features=768, out_features=3072, bias=True)
        (act): GELU(approximate=none)
        (fc2): Linear(in_features=3072, out_features=768, bias=True)
        (drop): Dropout(p=0.1, inplace=False)
      )
    )
    (8): Block(
      (norm1): LayerNorm((768,), eps=1e-06, elementwise_affine=True)
      (attn): Attention(
        (qkv): Linear(in_features=768, out_features=2304, bias=True)
        (attn_drop): Dropout(p=0.0, inplace=False)
        (proj): Linear(in_features=768, out_features=768, bias=True)
        (proj_drop): Dropout(p=0.1, inplace=False)
      )
      (drop_path): Identity()
      (norm2): LayerNorm((768,), eps=1e-06, elementwise_affine=True)
      (mlp): Mlp(
        (fc1): Linear(in_features=768, out_features=3072, bias=True)
        (act): GELU(approximate=none)
        (fc2): Linear(in_features=3072, out_features=768, bias=True)
        (drop): Dropout(p=0.1, inplace=False)
      )
    )
    (9): Block(
      (norm1): LayerNorm((768,), eps=1e-06, elementwise_affine=True)
      (attn): Attention(
        (qkv): Linear(in_features=768, out_features=2304, bias=True)
        (attn_drop): Dropout(p=0.0, inplace=False)
        (proj): Linear(in_features=768, out_features=768, bias=True)
        (proj_drop): Dropout(p=0.1, inplace=False)
      )
      (drop_path): Identity()
      (norm2): LayerNorm((768,), eps=1e-06, elementwise_affine=True)
      (mlp): Mlp(
        (fc1): Linear(in_features=768, out_features=3072, bias=True)
        (act): GELU(approximate=none)
        (fc2): Linear(in_features=3072, out_features=768, bias=True)
        (drop): Dropout(p=0.1, inplace=False)
      )
    )
    (10): Block(
      (norm1): LayerNorm((768,), eps=1e-06, elementwise_affine=True)
      (attn): Attention(
        (qkv): Linear(in_features=768, out_features=2304, bias=True)
        (attn_drop): Dropout(p=0.0, inplace=False)
        (proj): Linear(in_features=768, out_features=768, bias=True)
        (proj_drop): Dropout(p=0.1, inplace=False)
      )
      (drop_path): Identity()
      (norm2): LayerNorm((768,), eps=1e-06, elementwise_affine=True)
      (mlp): Mlp(
        (fc1): Linear(in_features=768, out_features=3072, bias=True)
        (act): GELU(approximate=none)
        (fc2): Linear(in_features=3072, out_features=768, bias=True)
        (drop): Dropout(p=0.1, inplace=False)
      )
    )
    (11): Block(
      (norm1): LayerNorm((768,), eps=1e-06, elementwise_affine=True)
      (attn): Attention(
        (qkv): Linear(in_features=768, out_features=2304, bias=True)
        (attn_drop): Dropout(p=0.0, inplace=False)
        (proj): Linear(in_features=768, out_features=768, bias=True)
        (proj_drop): Dropout(p=0.1, inplace=False)
      )
      (drop_path): Identity()
      (norm2): LayerNorm((768,), eps=1e-06, elementwise_affine=True)
      (mlp): Mlp(
        (fc1): Linear(in_features=768, out_features=3072, bias=True)
        (act): GELU(approximate=none)
        (fc2): Linear(in_features=3072, out_features=768, bias=True)
        (drop): Dropout(p=0.1, inplace=False)
      )
    )
  )
  (norm): LayerNorm((768,), eps=1e-06, elementwise_affine=True)
)
3 PatchEmbed(
  (proj): Conv2d(3, 768, kernel_size=(32, 32), stride=(32, 32))
)
4 Conv2d(3, 768, kernel_size=(32, 32), stride=(32, 32))
5 Dropout(p=0.1, inplace=False)
6 ModuleList(
  (0): Block(
    (norm1): LayerNorm((768,), eps=1e-06, elementwise_affine=True)
    (attn): Attention(
      (qkv): Linear(in_features=768, out_features=2304, bias=True)
      (attn_drop): Dropout(p=0.0, inplace=False)
      (proj): Linear(in_features=768, out_features=768, bias=True)
      (proj_drop): Dropout(p=0.1, inplace=False)
    )
    (drop_path): Identity()
    (norm2): LayerNorm((768,), eps=1e-06, elementwise_affine=True)
    (mlp): Mlp(
      (fc1): Linear(in_features=768, out_features=3072, bias=True)
      (act): GELU(approximate=none)
      (fc2): Linear(in_features=3072, out_features=768, bias=True)
      (drop): Dropout(p=0.1, inplace=False)
    )
  )
  (1): Block(
    (norm1): LayerNorm((768,), eps=1e-06, elementwise_affine=True)
    (attn): Attention(
      (qkv): Linear(in_features=768, out_features=2304, bias=True)
      (attn_drop): Dropout(p=0.0, inplace=False)
      (proj): Linear(in_features=768, out_features=768, bias=True)
      (proj_drop): Dropout(p=0.1, inplace=False)
    )
    (drop_path): Identity()
    (norm2): LayerNorm((768,), eps=1e-06, elementwise_affine=True)
    (mlp): Mlp(
      (fc1): Linear(in_features=768, out_features=3072, bias=True)
      (act): GELU(approximate=none)
      (fc2): Linear(in_features=3072, out_features=768, bias=True)
      (drop): Dropout(p=0.1, inplace=False)
    )
  )
  (2): Block(
    (norm1): LayerNorm((768,), eps=1e-06, elementwise_affine=True)
    (attn): Attention(
      (qkv): Linear(in_features=768, out_features=2304, bias=True)
      (attn_drop): Dropout(p=0.0, inplace=False)
      (proj): Linear(in_features=768, out_features=768, bias=True)
      (proj_drop): Dropout(p=0.1, inplace=False)
    )
    (drop_path): Identity()
    (norm2): LayerNorm((768,), eps=1e-06, elementwise_affine=True)
    (mlp): Mlp(
      (fc1): Linear(in_features=768, out_features=3072, bias=True)
      (act): GELU(approximate=none)
      (fc2): Linear(in_features=3072, out_features=768, bias=True)
      (drop): Dropout(p=0.1, inplace=False)
    )
  )
  (3): Block(
    (norm1): LayerNorm((768,), eps=1e-06, elementwise_affine=True)
    (attn): Attention(
      (qkv): Linear(in_features=768, out_features=2304, bias=True)
      (attn_drop): Dropout(p=0.0, inplace=False)
      (proj): Linear(in_features=768, out_features=768, bias=True)
      (proj_drop): Dropout(p=0.1, inplace=False)
    )
    (drop_path): Identity()
    (norm2): LayerNorm((768,), eps=1e-06, elementwise_affine=True)
    (mlp): Mlp(
      (fc1): Linear(in_features=768, out_features=3072, bias=True)
      (act): GELU(approximate=none)
      (fc2): Linear(in_features=3072, out_features=768, bias=True)
      (drop): Dropout(p=0.1, inplace=False)
    )
  )
  (4): Block(
    (norm1): LayerNorm((768,), eps=1e-06, elementwise_affine=True)
    (attn): Attention(
      (qkv): Linear(in_features=768, out_features=2304, bias=True)
      (attn_drop): Dropout(p=0.0, inplace=False)
      (proj): Linear(in_features=768, out_features=768, bias=True)
      (proj_drop): Dropout(p=0.1, inplace=False)
    )
    (drop_path): Identity()
    (norm2): LayerNorm((768,), eps=1e-06, elementwise_affine=True)
    (mlp): Mlp(
      (fc1): Linear(in_features=768, out_features=3072, bias=True)
      (act): GELU(approximate=none)
      (fc2): Linear(in_features=3072, out_features=768, bias=True)
      (drop): Dropout(p=0.1, inplace=False)
    )
  )
  (5): Block(
    (norm1): LayerNorm((768,), eps=1e-06, elementwise_affine=True)
    (attn): Attention(
      (qkv): Linear(in_features=768, out_features=2304, bias=True)
      (attn_drop): Dropout(p=0.0, inplace=False)
      (proj): Linear(in_features=768, out_features=768, bias=True)
      (proj_drop): Dropout(p=0.1, inplace=False)
    )
    (drop_path): Identity()
    (norm2): LayerNorm((768,), eps=1e-06, elementwise_affine=True)
    (mlp): Mlp(
      (fc1): Linear(in_features=768, out_features=3072, bias=True)
      (act): GELU(approximate=none)
      (fc2): Linear(in_features=3072, out_features=768, bias=True)
      (drop): Dropout(p=0.1, inplace=False)
    )
  )
  (6): Block(
    (norm1): LayerNorm((768,), eps=1e-06, elementwise_affine=True)
    (attn): Attention(
      (qkv): Linear(in_features=768, out_features=2304, bias=True)
      (attn_drop): Dropout(p=0.0, inplace=False)
      (proj): Linear(in_features=768, out_features=768, bias=True)
      (proj_drop): Dropout(p=0.1, inplace=False)
    )
    (drop_path): Identity()
    (norm2): LayerNorm((768,), eps=1e-06, elementwise_affine=True)
    (mlp): Mlp(
      (fc1): Linear(in_features=768, out_features=3072, bias=True)
      (act): GELU(approximate=none)
      (fc2): Linear(in_features=3072, out_features=768, bias=True)
      (drop): Dropout(p=0.1, inplace=False)
    )
  )
  (7): Block(
    (norm1): LayerNorm((768,), eps=1e-06, elementwise_affine=True)
    (attn): Attention(
      (qkv): Linear(in_features=768, out_features=2304, bias=True)
      (attn_drop): Dropout(p=0.0, inplace=False)
      (proj): Linear(in_features=768, out_features=768, bias=True)
      (proj_drop): Dropout(p=0.1, inplace=False)
    )
    (drop_path): Identity()
    (norm2): LayerNorm((768,), eps=1e-06, elementwise_affine=True)
    (mlp): Mlp(
      (fc1): Linear(in_features=768, out_features=3072, bias=True)
      (act): GELU(approximate=none)
      (fc2): Linear(in_features=3072, out_features=768, bias=True)
      (drop): Dropout(p=0.1, inplace=False)
    )
  )
  (8): Block(
    (norm1): LayerNorm((768,), eps=1e-06, elementwise_affine=True)
    (attn): Attention(
      (qkv): Linear(in_features=768, out_features=2304, bias=True)
      (attn_drop): Dropout(p=0.0, inplace=False)
      (proj): Linear(in_features=768, out_features=768, bias=True)
      (proj_drop): Dropout(p=0.1, inplace=False)
    )
    (drop_path): Identity()
    (norm2): LayerNorm((768,), eps=1e-06, elementwise_affine=True)
    (mlp): Mlp(
      (fc1): Linear(in_features=768, out_features=3072, bias=True)
      (act): GELU(approximate=none)
      (fc2): Linear(in_features=3072, out_features=768, bias=True)
      (drop): Dropout(p=0.1, inplace=False)
    )
  )
  (9): Block(
    (norm1): LayerNorm((768,), eps=1e-06, elementwise_affine=True)
    (attn): Attention(
      (qkv): Linear(in_features=768, out_features=2304, bias=True)
      (attn_drop): Dropout(p=0.0, inplace=False)
      (proj): Linear(in_features=768, out_features=768, bias=True)
      (proj_drop): Dropout(p=0.1, inplace=False)
    )
    (drop_path): Identity()
    (norm2): LayerNorm((768,), eps=1e-06, elementwise_affine=True)
    (mlp): Mlp(
      (fc1): Linear(in_features=768, out_features=3072, bias=True)
      (act): GELU(approximate=none)
      (fc2): Linear(in_features=3072, out_features=768, bias=True)
      (drop): Dropout(p=0.1, inplace=False)
    )
  )
  (10): Block(
    (norm1): LayerNorm((768,), eps=1e-06, elementwise_affine=True)
    (attn): Attention(
      (qkv): Linear(in_features=768, out_features=2304, bias=True)
      (attn_drop): Dropout(p=0.0, inplace=False)
      (proj): Linear(in_features=768, out_features=768, bias=True)
      (proj_drop): Dropout(p=0.1, inplace=False)
    )
    (drop_path): Identity()
    (norm2): LayerNorm((768,), eps=1e-06, elementwise_affine=True)
    (mlp): Mlp(
      (fc1): Linear(in_features=768, out_features=3072, bias=True)
      (act): GELU(approximate=none)
      (fc2): Linear(in_features=3072, out_features=768, bias=True)
      (drop): Dropout(p=0.1, inplace=False)
    )
  )
  (11): Block(
    (norm1): LayerNorm((768,), eps=1e-06, elementwise_affine=True)
    (attn): Attention(
      (qkv): Linear(in_features=768, out_features=2304, bias=True)
      (attn_drop): Dropout(p=0.0, inplace=False)
      (proj): Linear(in_features=768, out_features=768, bias=True)
      (proj_drop): Dropout(p=0.1, inplace=False)
    )
    (drop_path): Identity()
    (norm2): LayerNorm((768,), eps=1e-06, elementwise_affine=True)
    (mlp): Mlp(
      (fc1): Linear(in_features=768, out_features=3072, bias=True)
      (act): GELU(approximate=none)
      (fc2): Linear(in_features=3072, out_features=768, bias=True)
      (drop): Dropout(p=0.1, inplace=False)
    )
  )
)
7 Block(
  (norm1): LayerNorm((768,), eps=1e-06, elementwise_affine=True)
  (attn): Attention(
    (qkv): Linear(in_features=768, out_features=2304, bias=True)
    (attn_drop): Dropout(p=0.0, inplace=False)
    (proj): Linear(in_features=768, out_features=768, bias=True)
    (proj_drop): Dropout(p=0.1, inplace=False)
  )
  (drop_path): Identity()
  (norm2): LayerNorm((768,), eps=1e-06, elementwise_affine=True)
  (mlp): Mlp(
    (fc1): Linear(in_features=768, out_features=3072, bias=True)
    (act): GELU(approximate=none)
    (fc2): Linear(in_features=3072, out_features=768, bias=True)
    (drop): Dropout(p=0.1, inplace=False)
  )
)
8 LayerNorm((768,), eps=1e-06, elementwise_affine=True)
9 Attention(
  (qkv): Linear(in_features=768, out_features=2304, bias=True)
  (attn_drop): Dropout(p=0.0, inplace=False)
  (proj): Linear(in_features=768, out_features=768, bias=True)
  (proj_drop): Dropout(p=0.1, inplace=False)
)
10 Linear(in_features=768, out_features=2304, bias=True)
11 Dropout(p=0.0, inplace=False)
12 Linear(in_features=768, out_features=768, bias=True)
13 Dropout(p=0.1, inplace=False)
14 Identity()
15 LayerNorm((768,), eps=1e-06, elementwise_affine=True)
16 Mlp(
  (fc1): Linear(in_features=768, out_features=3072, bias=True)
  (act): GELU(approximate=none)
  (fc2): Linear(in_features=3072, out_features=768, bias=True)
  (drop): Dropout(p=0.1, inplace=False)
)
17 Linear(in_features=768, out_features=3072, bias=True)
18 GELU(approximate=none)
19 Linear(in_features=3072, out_features=768, bias=True)
20 Dropout(p=0.1, inplace=False)
21 Block(
  (norm1): LayerNorm((768,), eps=1e-06, elementwise_affine=True)
  (attn): Attention(
    (qkv): Linear(in_features=768, out_features=2304, bias=True)
    (attn_drop): Dropout(p=0.0, inplace=False)
    (proj): Linear(in_features=768, out_features=768, bias=True)
    (proj_drop): Dropout(p=0.1, inplace=False)
  )
  (drop_path): Identity()
  (norm2): LayerNorm((768,), eps=1e-06, elementwise_affine=True)
  (mlp): Mlp(
    (fc1): Linear(in_features=768, out_features=3072, bias=True)
    (act): GELU(approximate=none)
    (fc2): Linear(in_features=3072, out_features=768, bias=True)
    (drop): Dropout(p=0.1, inplace=False)
  )
)
22 LayerNorm((768,), eps=1e-06, elementwise_affine=True)
23 Attention(
  (qkv): Linear(in_features=768, out_features=2304, bias=True)
  (attn_drop): Dropout(p=0.0, inplace=False)
  (proj): Linear(in_features=768, out_features=768, bias=True)
  (proj_drop): Dropout(p=0.1, inplace=False)
)
24 Linear(in_features=768, out_features=2304, bias=True)
25 Dropout(p=0.0, inplace=False)
26 Linear(in_features=768, out_features=768, bias=True)
27 Dropout(p=0.1, inplace=False)
28 Identity()
29 LayerNorm((768,), eps=1e-06, elementwise_affine=True)
30 Mlp(
  (fc1): Linear(in_features=768, out_features=3072, bias=True)
  (act): GELU(approximate=none)
  (fc2): Linear(in_features=3072, out_features=768, bias=True)
  (drop): Dropout(p=0.1, inplace=False)
)
31 Linear(in_features=768, out_features=3072, bias=True)
32 GELU(approximate=none)
33 Linear(in_features=3072, out_features=768, bias=True)
34 Dropout(p=0.1, inplace=False)
35 Block(
  (norm1): LayerNorm((768,), eps=1e-06, elementwise_affine=True)
  (attn): Attention(
    (qkv): Linear(in_features=768, out_features=2304, bias=True)
    (attn_drop): Dropout(p=0.0, inplace=False)
    (proj): Linear(in_features=768, out_features=768, bias=True)
    (proj_drop): Dropout(p=0.1, inplace=False)
  )
  (drop_path): Identity()
  (norm2): LayerNorm((768,), eps=1e-06, elementwise_affine=True)
  (mlp): Mlp(
    (fc1): Linear(in_features=768, out_features=3072, bias=True)
    (act): GELU(approximate=none)
    (fc2): Linear(in_features=3072, out_features=768, bias=True)
    (drop): Dropout(p=0.1, inplace=False)
  )
)
36 LayerNorm((768,), eps=1e-06, elementwise_affine=True)
37 Attention(
  (qkv): Linear(in_features=768, out_features=2304, bias=True)
  (attn_drop): Dropout(p=0.0, inplace=False)
  (proj): Linear(in_features=768, out_features=768, bias=True)
  (proj_drop): Dropout(p=0.1, inplace=False)
)
38 Linear(in_features=768, out_features=2304, bias=True)
39 Dropout(p=0.0, inplace=False)
40 Linear(in_features=768, out_features=768, bias=True)
41 Dropout(p=0.1, inplace=False)
42 Identity()
43 LayerNorm((768,), eps=1e-06, elementwise_affine=True)
44 Mlp(
  (fc1): Linear(in_features=768, out_features=3072, bias=True)
  (act): GELU(approximate=none)
  (fc2): Linear(in_features=3072, out_features=768, bias=True)
  (drop): Dropout(p=0.1, inplace=False)
)
45 Linear(in_features=768, out_features=3072, bias=True)
46 GELU(approximate=none)
47 Linear(in_features=3072, out_features=768, bias=True)
48 Dropout(p=0.1, inplace=False)
49 Block(
  (norm1): LayerNorm((768,), eps=1e-06, elementwise_affine=True)
  (attn): Attention(
    (qkv): Linear(in_features=768, out_features=2304, bias=True)
    (attn_drop): Dropout(p=0.0, inplace=False)
    (proj): Linear(in_features=768, out_features=768, bias=True)
    (proj_drop): Dropout(p=0.1, inplace=False)
  )
  (drop_path): Identity()
  (norm2): LayerNorm((768,), eps=1e-06, elementwise_affine=True)
  (mlp): Mlp(
    (fc1): Linear(in_features=768, out_features=3072, bias=True)
    (act): GELU(approximate=none)
    (fc2): Linear(in_features=3072, out_features=768, bias=True)
    (drop): Dropout(p=0.1, inplace=False)
  )
)
50 LayerNorm((768,), eps=1e-06, elementwise_affine=True)
51 Attention(
  (qkv): Linear(in_features=768, out_features=2304, bias=True)
  (attn_drop): Dropout(p=0.0, inplace=False)
  (proj): Linear(in_features=768, out_features=768, bias=True)
  (proj_drop): Dropout(p=0.1, inplace=False)
)
52 Linear(in_features=768, out_features=2304, bias=True)
53 Dropout(p=0.0, inplace=False)
54 Linear(in_features=768, out_features=768, bias=True)
55 Dropout(p=0.1, inplace=False)
56 Identity()
57 LayerNorm((768,), eps=1e-06, elementwise_affine=True)
58 Mlp(
  (fc1): Linear(in_features=768, out_features=3072, bias=True)
  (act): GELU(approximate=none)
  (fc2): Linear(in_features=3072, out_features=768, bias=True)
  (drop): Dropout(p=0.1, inplace=False)
)
59 Linear(in_features=768, out_features=3072, bias=True)
60 GELU(approximate=none)
61 Linear(in_features=3072, out_features=768, bias=True)
62 Dropout(p=0.1, inplace=False)
63 Block(
  (norm1): LayerNorm((768,), eps=1e-06, elementwise_affine=True)
  (attn): Attention(
    (qkv): Linear(in_features=768, out_features=2304, bias=True)
    (attn_drop): Dropout(p=0.0, inplace=False)
    (proj): Linear(in_features=768, out_features=768, bias=True)
    (proj_drop): Dropout(p=0.1, inplace=False)
  )
  (drop_path): Identity()
  (norm2): LayerNorm((768,), eps=1e-06, elementwise_affine=True)
  (mlp): Mlp(
    (fc1): Linear(in_features=768, out_features=3072, bias=True)
    (act): GELU(approximate=none)
    (fc2): Linear(in_features=3072, out_features=768, bias=True)
    (drop): Dropout(p=0.1, inplace=False)
  )
)
64 LayerNorm((768,), eps=1e-06, elementwise_affine=True)
65 Attention(
  (qkv): Linear(in_features=768, out_features=2304, bias=True)
  (attn_drop): Dropout(p=0.0, inplace=False)
  (proj): Linear(in_features=768, out_features=768, bias=True)
  (proj_drop): Dropout(p=0.1, inplace=False)
)
66 Linear(in_features=768, out_features=2304, bias=True)
67 Dropout(p=0.0, inplace=False)
68 Linear(in_features=768, out_features=768, bias=True)
69 Dropout(p=0.1, inplace=False)
70 Identity()
71 LayerNorm((768,), eps=1e-06, elementwise_affine=True)
72 Mlp(
  (fc1): Linear(in_features=768, out_features=3072, bias=True)
  (act): GELU(approximate=none)
  (fc2): Linear(in_features=3072, out_features=768, bias=True)
  (drop): Dropout(p=0.1, inplace=False)
)
73 Linear(in_features=768, out_features=3072, bias=True)
74 GELU(approximate=none)
75 Linear(in_features=3072, out_features=768, bias=True)
76 Dropout(p=0.1, inplace=False)
77 Block(
  (norm1): LayerNorm((768,), eps=1e-06, elementwise_affine=True)
  (attn): Attention(
    (qkv): Linear(in_features=768, out_features=2304, bias=True)
    (attn_drop): Dropout(p=0.0, inplace=False)
    (proj): Linear(in_features=768, out_features=768, bias=True)
    (proj_drop): Dropout(p=0.1, inplace=False)
  )
  (drop_path): Identity()
  (norm2): LayerNorm((768,), eps=1e-06, elementwise_affine=True)
  (mlp): Mlp(
    (fc1): Linear(in_features=768, out_features=3072, bias=True)
    (act): GELU(approximate=none)
    (fc2): Linear(in_features=3072, out_features=768, bias=True)
    (drop): Dropout(p=0.1, inplace=False)
  )
)
78 LayerNorm((768,), eps=1e-06, elementwise_affine=True)
79 Attention(
  (qkv): Linear(in_features=768, out_features=2304, bias=True)
  (attn_drop): Dropout(p=0.0, inplace=False)
  (proj): Linear(in_features=768, out_features=768, bias=True)
  (proj_drop): Dropout(p=0.1, inplace=False)
)
80 Linear(in_features=768, out_features=2304, bias=True)
81 Dropout(p=0.0, inplace=False)
82 Linear(in_features=768, out_features=768, bias=True)
83 Dropout(p=0.1, inplace=False)
84 Identity()
85 LayerNorm((768,), eps=1e-06, elementwise_affine=True)
86 Mlp(
  (fc1): Linear(in_features=768, out_features=3072, bias=True)
  (act): GELU(approximate=none)
  (fc2): Linear(in_features=3072, out_features=768, bias=True)
  (drop): Dropout(p=0.1, inplace=False)
)
87 Linear(in_features=768, out_features=3072, bias=True)
88 GELU(approximate=none)
89 Linear(in_features=3072, out_features=768, bias=True)
90 Dropout(p=0.1, inplace=False)
91 Block(
  (norm1): LayerNorm((768,), eps=1e-06, elementwise_affine=True)
  (attn): Attention(
    (qkv): Linear(in_features=768, out_features=2304, bias=True)
    (attn_drop): Dropout(p=0.0, inplace=False)
    (proj): Linear(in_features=768, out_features=768, bias=True)
    (proj_drop): Dropout(p=0.1, inplace=False)
  )
  (drop_path): Identity()
  (norm2): LayerNorm((768,), eps=1e-06, elementwise_affine=True)
  (mlp): Mlp(
    (fc1): Linear(in_features=768, out_features=3072, bias=True)
    (act): GELU(approximate=none)
    (fc2): Linear(in_features=3072, out_features=768, bias=True)
    (drop): Dropout(p=0.1, inplace=False)
  )
)
92 LayerNorm((768,), eps=1e-06, elementwise_affine=True)
93 Attention(
  (qkv): Linear(in_features=768, out_features=2304, bias=True)
  (attn_drop): Dropout(p=0.0, inplace=False)
  (proj): Linear(in_features=768, out_features=768, bias=True)
  (proj_drop): Dropout(p=0.1, inplace=False)
)
94 Linear(in_features=768, out_features=2304, bias=True)
95 Dropout(p=0.0, inplace=False)
96 Linear(in_features=768, out_features=768, bias=True)
97 Dropout(p=0.1, inplace=False)
98 Identity()
99 LayerNorm((768,), eps=1e-06, elementwise_affine=True)
100 Mlp(
  (fc1): Linear(in_features=768, out_features=3072, bias=True)
  (act): GELU(approximate=none)
  (fc2): Linear(in_features=3072, out_features=768, bias=True)
  (drop): Dropout(p=0.1, inplace=False)
)
101 Linear(in_features=768, out_features=3072, bias=True)
102 GELU(approximate=none)
103 Linear(in_features=3072, out_features=768, bias=True)
104 Dropout(p=0.1, inplace=False)
105 Block(
  (norm1): LayerNorm((768,), eps=1e-06, elementwise_affine=True)
  (attn): Attention(
    (qkv): Linear(in_features=768, out_features=2304, bias=True)
    (attn_drop): Dropout(p=0.0, inplace=False)
    (proj): Linear(in_features=768, out_features=768, bias=True)
    (proj_drop): Dropout(p=0.1, inplace=False)
  )
  (drop_path): Identity()
  (norm2): LayerNorm((768,), eps=1e-06, elementwise_affine=True)
  (mlp): Mlp(
    (fc1): Linear(in_features=768, out_features=3072, bias=True)
    (act): GELU(approximate=none)
    (fc2): Linear(in_features=3072, out_features=768, bias=True)
    (drop): Dropout(p=0.1, inplace=False)
  )
)
106 LayerNorm((768,), eps=1e-06, elementwise_affine=True)
107 Attention(
  (qkv): Linear(in_features=768, out_features=2304, bias=True)
  (attn_drop): Dropout(p=0.0, inplace=False)
  (proj): Linear(in_features=768, out_features=768, bias=True)
  (proj_drop): Dropout(p=0.1, inplace=False)
)
108 Linear(in_features=768, out_features=2304, bias=True)
109 Dropout(p=0.0, inplace=False)
110 Linear(in_features=768, out_features=768, bias=True)
111 Dropout(p=0.1, inplace=False)
112 Identity()
113 LayerNorm((768,), eps=1e-06, elementwise_affine=True)
114 Mlp(
  (fc1): Linear(in_features=768, out_features=3072, bias=True)
  (act): GELU(approximate=none)
  (fc2): Linear(in_features=3072, out_features=768, bias=True)
  (drop): Dropout(p=0.1, inplace=False)
)
115 Linear(in_features=768, out_features=3072, bias=True)
116 GELU(approximate=none)
117 Linear(in_features=3072, out_features=768, bias=True)
118 Dropout(p=0.1, inplace=False)
119 Block(
  (norm1): LayerNorm((768,), eps=1e-06, elementwise_affine=True)
  (attn): Attention(
    (qkv): Linear(in_features=768, out_features=2304, bias=True)
    (attn_drop): Dropout(p=0.0, inplace=False)
    (proj): Linear(in_features=768, out_features=768, bias=True)
    (proj_drop): Dropout(p=0.1, inplace=False)
  )
  (drop_path): Identity()
  (norm2): LayerNorm((768,), eps=1e-06, elementwise_affine=True)
  (mlp): Mlp(
    (fc1): Linear(in_features=768, out_features=3072, bias=True)
    (act): GELU(approximate=none)
    (fc2): Linear(in_features=3072, out_features=768, bias=True)
    (drop): Dropout(p=0.1, inplace=False)
  )
)
120 LayerNorm((768,), eps=1e-06, elementwise_affine=True)
121 Attention(
  (qkv): Linear(in_features=768, out_features=2304, bias=True)
  (attn_drop): Dropout(p=0.0, inplace=False)
  (proj): Linear(in_features=768, out_features=768, bias=True)
  (proj_drop): Dropout(p=0.1, inplace=False)
)
122 Linear(in_features=768, out_features=2304, bias=True)
123 Dropout(p=0.0, inplace=False)
124 Linear(in_features=768, out_features=768, bias=True)
125 Dropout(p=0.1, inplace=False)
126 Identity()
127 LayerNorm((768,), eps=1e-06, elementwise_affine=True)
128 Mlp(
  (fc1): Linear(in_features=768, out_features=3072, bias=True)
  (act): GELU(approximate=none)
  (fc2): Linear(in_features=3072, out_features=768, bias=True)
  (drop): Dropout(p=0.1, inplace=False)
)
129 Linear(in_features=768, out_features=3072, bias=True)
130 GELU(approximate=none)
131 Linear(in_features=3072, out_features=768, bias=True)
132 Dropout(p=0.1, inplace=False)
133 Block(
  (norm1): LayerNorm((768,), eps=1e-06, elementwise_affine=True)
  (attn): Attention(
    (qkv): Linear(in_features=768, out_features=2304, bias=True)
    (attn_drop): Dropout(p=0.0, inplace=False)
    (proj): Linear(in_features=768, out_features=768, bias=True)
    (proj_drop): Dropout(p=0.1, inplace=False)
  )
  (drop_path): Identity()
  (norm2): LayerNorm((768,), eps=1e-06, elementwise_affine=True)
  (mlp): Mlp(
    (fc1): Linear(in_features=768, out_features=3072, bias=True)
    (act): GELU(approximate=none)
    (fc2): Linear(in_features=3072, out_features=768, bias=True)
    (drop): Dropout(p=0.1, inplace=False)
  )
)
134 LayerNorm((768,), eps=1e-06, elementwise_affine=True)
135 Attention(
  (qkv): Linear(in_features=768, out_features=2304, bias=True)
  (attn_drop): Dropout(p=0.0, inplace=False)
  (proj): Linear(in_features=768, out_features=768, bias=True)
  (proj_drop): Dropout(p=0.1, inplace=False)
)
136 Linear(in_features=768, out_features=2304, bias=True)
137 Dropout(p=0.0, inplace=False)
138 Linear(in_features=768, out_features=768, bias=True)
139 Dropout(p=0.1, inplace=False)
140 Identity()
141 LayerNorm((768,), eps=1e-06, elementwise_affine=True)
142 Mlp(
  (fc1): Linear(in_features=768, out_features=3072, bias=True)
  (act): GELU(approximate=none)
  (fc2): Linear(in_features=3072, out_features=768, bias=True)
  (drop): Dropout(p=0.1, inplace=False)
)
143 Linear(in_features=768, out_features=3072, bias=True)
144 GELU(approximate=none)
145 Linear(in_features=3072, out_features=768, bias=True)
146 Dropout(p=0.1, inplace=False)
147 Block(
  (norm1): LayerNorm((768,), eps=1e-06, elementwise_affine=True)
  (attn): Attention(
    (qkv): Linear(in_features=768, out_features=2304, bias=True)
    (attn_drop): Dropout(p=0.0, inplace=False)
    (proj): Linear(in_features=768, out_features=768, bias=True)
    (proj_drop): Dropout(p=0.1, inplace=False)
  )
  (drop_path): Identity()
  (norm2): LayerNorm((768,), eps=1e-06, elementwise_affine=True)
  (mlp): Mlp(
    (fc1): Linear(in_features=768, out_features=3072, bias=True)
    (act): GELU(approximate=none)
    (fc2): Linear(in_features=3072, out_features=768, bias=True)
    (drop): Dropout(p=0.1, inplace=False)
  )
)
148 LayerNorm((768,), eps=1e-06, elementwise_affine=True)
149 Attention(
  (qkv): Linear(in_features=768, out_features=2304, bias=True)
  (attn_drop): Dropout(p=0.0, inplace=False)
  (proj): Linear(in_features=768, out_features=768, bias=True)
  (proj_drop): Dropout(p=0.1, inplace=False)
)
150 Linear(in_features=768, out_features=2304, bias=True)
151 Dropout(p=0.0, inplace=False)
152 Linear(in_features=768, out_features=768, bias=True)
153 Dropout(p=0.1, inplace=False)
154 Identity()
155 LayerNorm((768,), eps=1e-06, elementwise_affine=True)
156 Mlp(
  (fc1): Linear(in_features=768, out_features=3072, bias=True)
  (act): GELU(approximate=none)
  (fc2): Linear(in_features=3072, out_features=768, bias=True)
  (drop): Dropout(p=0.1, inplace=False)
)
157 Linear(in_features=768, out_features=3072, bias=True)
158 GELU(approximate=none)
159 Linear(in_features=3072, out_features=768, bias=True)
160 Dropout(p=0.1, inplace=False)
161 Block(
  (norm1): LayerNorm((768,), eps=1e-06, elementwise_affine=True)
  (attn): Attention(
    (qkv): Linear(in_features=768, out_features=2304, bias=True)
    (attn_drop): Dropout(p=0.0, inplace=False)
    (proj): Linear(in_features=768, out_features=768, bias=True)
    (proj_drop): Dropout(p=0.1, inplace=False)
  )
  (drop_path): Identity()
  (norm2): LayerNorm((768,), eps=1e-06, elementwise_affine=True)
  (mlp): Mlp(
    (fc1): Linear(in_features=768, out_features=3072, bias=True)
    (act): GELU(approximate=none)
    (fc2): Linear(in_features=3072, out_features=768, bias=True)
    (drop): Dropout(p=0.1, inplace=False)
  )
)
162 LayerNorm((768,), eps=1e-06, elementwise_affine=True)
163 Attention(
  (qkv): Linear(in_features=768, out_features=2304, bias=True)
  (attn_drop): Dropout(p=0.0, inplace=False)
  (proj): Linear(in_features=768, out_features=768, bias=True)
  (proj_drop): Dropout(p=0.1, inplace=False)
)
164 Linear(in_features=768, out_features=2304, bias=True)
165 Dropout(p=0.0, inplace=False)
166 Linear(in_features=768, out_features=768, bias=True)
167 Dropout(p=0.1, inplace=False)
168 Identity()
169 LayerNorm((768,), eps=1e-06, elementwise_affine=True)
170 Mlp(
  (fc1): Linear(in_features=768, out_features=3072, bias=True)
  (act): GELU(approximate=none)
  (fc2): Linear(in_features=3072, out_features=768, bias=True)
  (drop): Dropout(p=0.1, inplace=False)
)
171 Linear(in_features=768, out_features=3072, bias=True)
172 GELU(approximate=none)
173 Linear(in_features=3072, out_features=768, bias=True)
174 Dropout(p=0.1, inplace=False)
175 LayerNorm((768,), eps=1e-06, elementwise_affine=True)
176 Linear(in_features=768, out_features=768, bias=True)
177 Tanh()
178 Pooler(
  (dense): Linear(in_features=768, out_features=768, bias=True)
  (activation): Tanh()
)
179 Linear(in_features=768, out_features=768, bias=True)
180 Tanh()
181 Linear(in_features=768, out_features=1, bias=True)
wandb: Tracking run with wandb version 0.13.1
wandb: W&B syncing is set to `offline` in this directory.  
wandb: Run `wandb online` or set WANDB_MODE=online to enable cloud syncing.
cuda: NVIDIA GeForce RTX 3090
…
