…
train_df.shape: (713, 30)
valid_df.shape: (179, 30)
/home/junsheng/ViLT/test_sensor_and_pic.py:270: UserWarning: To copy construct from a tensor, it is recommended to use sourceTensor.clone().detach() or sourceTensor.clone().detach().requires_grad_(True), rather than torch.tensor(sourceTensor).
  return torch.tensor(img).to(torch.float), torch.tensor(sensor).to(torch.float),torch.tensor(label).to(torch.float)
torch.Size([32, 3, 384, 384])
torch.Size([32, 1, 17])
torch.Size([32])
No pretrained weights exist or were found for this model. Using random initialization.
cuda:1
0 sensorViLTransformerSS(
  (sensor_linear): Linear(in_features=17, out_features=768, bias=True)
  (token_type_embeddings): Embedding(2, 768)
  (transformer): VisionTransformer(
    (patch_embed): PatchEmbed(
      (proj): Conv2d(3, 768, kernel_size=(32, 32), stride=(32, 32))
    )
    (pos_drop): Dropout(p=0.1, inplace=False)
    (blocks): ModuleList(
      (0): Block(
        (norm1): LayerNorm((768,), eps=1e-06, elementwise_affine=True)
        (attn): Attention(
          (qkv): Linear(in_features=768, out_features=2304, bias=True)
          (attn_drop): Dropout(p=0.0, inplace=False)
          (proj): Linear(in_features=768, out_features=768, bias=True)
          (proj_drop): Dropout(p=0.1, inplace=False)
        )
        (drop_path): Identity()
        (norm2): LayerNorm((768,), eps=1e-06, elementwise_affine=True)
        (mlp): Mlp(
          (fc1): Linear(in_features=768, out_features=3072, bias=True)
          (act): GELU(approximate=none)
          (fc2): Linear(in_features=3072, out_features=768, bias=True)
          (drop): Dropout(p=0.1, inplace=False)
        )
      )
      (1): Block(
        (norm1): LayerNorm((768,), eps=1e-06, elementwise_affine=True)
        (attn): Attention(
          (qkv): Linear(in_features=768, out_features=2304, bias=True)
          (attn_drop): Dropout(p=0.0, inplace=False)
          (proj): Linear(in_features=768, out_features=768, bias=True)
          (proj_drop): Dropout(p=0.1, inplace=False)
        )
        (drop_path): Identity()
        (norm2): LayerNorm((768,), eps=1e-06, elementwise_affine=True)
        (mlp): Mlp(
          (fc1): Linear(in_features=768, out_features=3072, bias=True)
          (act): GELU(approximate=none)
          (fc2): Linear(in_features=3072, out_features=768, bias=True)
          (drop): Dropout(p=0.1, inplace=False)
        )
      )
      (2): Block(
        (norm1): LayerNorm((768,), eps=1e-06, elementwise_affine=True)
        (attn): Attention(
          (qkv): Linear(in_features=768, out_features=2304, bias=True)
          (attn_drop): Dropout(p=0.0, inplace=False)
          (proj): Linear(in_features=768, out_features=768, bias=True)
          (proj_drop): Dropout(p=0.1, inplace=False)
        )
        (drop_path): Identity()
        (norm2): LayerNorm((768,), eps=1e-06, elementwise_affine=True)
        (mlp): Mlp(
          (fc1): Linear(in_features=768, out_features=3072, bias=True)
          (act): GELU(approximate=none)
          (fc2): Linear(in_features=3072, out_features=768, bias=True)
          (drop): Dropout(p=0.1, inplace=False)
        )
      )
      (3): Block(
        (norm1): LayerNorm((768,), eps=1e-06, elementwise_affine=True)
        (attn): Attention(
          (qkv): Linear(in_features=768, out_features=2304, bias=True)
          (attn_drop): Dropout(p=0.0, inplace=False)
          (proj): Linear(in_features=768, out_features=768, bias=True)
          (proj_drop): Dropout(p=0.1, inplace=False)
        )
        (drop_path): Identity()
        (norm2): LayerNorm((768,), eps=1e-06, elementwise_affine=True)
        (mlp): Mlp(
          (fc1): Linear(in_features=768, out_features=3072, bias=True)
          (act): GELU(approximate=none)
          (fc2): Linear(in_features=3072, out_features=768, bias=True)
          (drop): Dropout(p=0.1, inplace=False)
        )
      )
      (4): Block(
        (norm1): LayerNorm((768,), eps=1e-06, elementwise_affine=True)
        (attn): Attention(
          (qkv): Linear(in_features=768, out_features=2304, bias=True)
          (attn_drop): Dropout(p=0.0, inplace=False)
          (proj): Linear(in_features=768, out_features=768, bias=True)
          (proj_drop): Dropout(p=0.1, inplace=False)
        )
        (drop_path): Identity()
        (norm2): LayerNorm((768,), eps=1e-06, elementwise_affine=True)
        (mlp): Mlp(
          (fc1): Linear(in_features=768, out_features=3072, bias=True)
          (act): GELU(approximate=none)
          (fc2): Linear(in_features=3072, out_features=768, bias=True)
          (drop): Dropout(p=0.1, inplace=False)
        )
      )
      (5): Block(
        (norm1): LayerNorm((768,), eps=1e-06, elementwise_affine=True)
        (attn): Attention(
          (qkv): Linear(in_features=768, out_features=2304, bias=True)
          (attn_drop): Dropout(p=0.0, inplace=False)
          (proj): Linear(in_features=768, out_features=768, bias=True)
          (proj_drop): Dropout(p=0.1, inplace=False)
        )
        (drop_path): Identity()
        (norm2): LayerNorm((768,), eps=1e-06, elementwise_affine=True)
        (mlp): Mlp(
          (fc1): Linear(in_features=768, out_features=3072, bias=True)
          (act): GELU(approximate=none)
          (fc2): Linear(in_features=3072, out_features=768, bias=True)
          (drop): Dropout(p=0.1, inplace=False)
        )
      )
      (6): Block(
        (norm1): LayerNorm((768,), eps=1e-06, elementwise_affine=True)
        (attn): Attention(
          (qkv): Linear(in_features=768, out_features=2304, bias=True)
          (attn_drop): Dropout(p=0.0, inplace=False)
          (proj): Linear(in_features=768, out_features=768, bias=True)
          (proj_drop): Dropout(p=0.1, inplace=False)
        )
        (drop_path): Identity()
        (norm2): LayerNorm((768,), eps=1e-06, elementwise_affine=True)
        (mlp): Mlp(
          (fc1): Linear(in_features=768, out_features=3072, bias=True)
          (act): GELU(approximate=none)
          (fc2): Linear(in_features=3072, out_features=768, bias=True)
          (drop): Dropout(p=0.1, inplace=False)
        )
      )
      (7): Block(
        (norm1): LayerNorm((768,), eps=1e-06, elementwise_affine=True)
        (attn): Attention(
          (qkv): Linear(in_features=768, out_features=2304, bias=True)
          (attn_drop): Dropout(p=0.0, inplace=False)
          (proj): Linear(in_features=768, out_features=768, bias=True)
          (proj_drop): Dropout(p=0.1, inplace=False)
        )
        (drop_path): Identity()
        (norm2): LayerNorm((768,), eps=1e-06, elementwise_affine=True)
        (mlp): Mlp(
          (fc1): Linear(in_features=768, out_features=3072, bias=True)
          (act): GELU(approximate=none)
          (fc2): Linear(in_features=3072, out_features=768, bias=True)
          (drop): Dropout(p=0.1, inplace=False)
        )
      )
      (8): Block(
        (norm1): LayerNorm((768,), eps=1e-06, elementwise_affine=True)
        (attn): Attention(
          (qkv): Linear(in_features=768, out_features=2304, bias=True)
          (attn_drop): Dropout(p=0.0, inplace=False)
          (proj): Linear(in_features=768, out_features=768, bias=True)
          (proj_drop): Dropout(p=0.1, inplace=False)
        )
        (drop_path): Identity()
        (norm2): LayerNorm((768,), eps=1e-06, elementwise_affine=True)
        (mlp): Mlp(
          (fc1): Linear(in_features=768, out_features=3072, bias=True)
          (act): GELU(approximate=none)
          (fc2): Linear(in_features=3072, out_features=768, bias=True)
          (drop): Dropout(p=0.1, inplace=False)
        )
      )
      (9): Block(
        (norm1): LayerNorm((768,), eps=1e-06, elementwise_affine=True)
        (attn): Attention(
          (qkv): Linear(in_features=768, out_features=2304, bias=True)
          (attn_drop): Dropout(p=0.0, inplace=False)
          (proj): Linear(in_features=768, out_features=768, bias=True)
          (proj_drop): Dropout(p=0.1, inplace=False)
        )
        (drop_path): Identity()
        (norm2): LayerNorm((768,), eps=1e-06, elementwise_affine=True)
        (mlp): Mlp(
          (fc1): Linear(in_features=768, out_features=3072, bias=True)
          (act): GELU(approximate=none)
          (fc2): Linear(in_features=3072, out_features=768, bias=True)
          (drop): Dropout(p=0.1, inplace=False)
        )
      )
      (10): Block(
        (norm1): LayerNorm((768,), eps=1e-06, elementwise_affine=True)
        (attn): Attention(
          (qkv): Linear(in_features=768, out_features=2304, bias=True)
          (attn_drop): Dropout(p=0.0, inplace=False)
          (proj): Linear(in_features=768, out_features=768, bias=True)
          (proj_drop): Dropout(p=0.1, inplace=False)
        )
        (drop_path): Identity()
        (norm2): LayerNorm((768,), eps=1e-06, elementwise_affine=True)
        (mlp): Mlp(
          (fc1): Linear(in_features=768, out_features=3072, bias=True)
          (act): GELU(approximate=none)
          (fc2): Linear(in_features=3072, out_features=768, bias=True)
          (drop): Dropout(p=0.1, inplace=False)
        )
      )
      (11): Block(
        (norm1): LayerNorm((768,), eps=1e-06, elementwise_affine=True)
        (attn): Attention(
          (qkv): Linear(in_features=768, out_features=2304, bias=True)
          (attn_drop): Dropout(p=0.0, inplace=False)
          (proj): Linear(in_features=768, out_features=768, bias=True)
          (proj_drop): Dropout(p=0.1, inplace=False)
        )
        (drop_path): Identity()
        (norm2): LayerNorm((768,), eps=1e-06, elementwise_affine=True)
        (mlp): Mlp(
          (fc1): Linear(in_features=768, out_features=3072, bias=True)
          (act): GELU(approximate=none)
          (fc2): Linear(in_features=3072, out_features=768, bias=True)
          (drop): Dropout(p=0.1, inplace=False)
        )
      )
    )
    (norm): LayerNorm((768,), eps=1e-06, elementwise_affine=True)
  )
  (dense): Linear(in_features=768, out_features=768, bias=True)
  (activation): Tanh()
  (pooler): Pooler(
    (dense): Linear(in_features=768, out_features=768, bias=True)
    (activation): Tanh()
  )
  (classifier): Linear(in_features=768, out_features=1, bias=True)
)
1 Linear(in_features=17, out_features=768, bias=True)
2 Embedding(2, 768)
3 VisionTransformer(
  (patch_embed): PatchEmbed(
    (proj): Conv2d(3, 768, kernel_size=(32, 32), stride=(32, 32))
  )
  (pos_drop): Dropout(p=0.1, inplace=False)
  (blocks): ModuleList(
    (0): Block(
      (norm1): LayerNorm((768,), eps=1e-06, elementwise_affine=True)
      (attn): Attention(
        (qkv): Linear(in_features=768, out_features=2304, bias=True)
        (attn_drop): Dropout(p=0.0, inplace=False)
        (proj): Linear(in_features=768, out_features=768, bias=True)
        (proj_drop): Dropout(p=0.1, inplace=False)
      )
      (drop_path): Identity()
      (norm2): LayerNorm((768,), eps=1e-06, elementwise_affine=True)
      (mlp): Mlp(
        (fc1): Linear(in_features=768, out_features=3072, bias=True)
        (act): GELU(approximate=none)
        (fc2): Linear(in_features=3072, out_features=768, bias=True)
        (drop): Dropout(p=0.1, inplace=False)
      )
    )
    (1): Block(
      (norm1): LayerNorm((768,), eps=1e-06, elementwise_affine=True)
      (attn): Attention(
        (qkv): Linear(in_features=768, out_features=2304, bias=True)
        (attn_drop): Dropout(p=0.0, inplace=False)
        (proj): Linear(in_features=768, out_features=768, bias=True)
        (proj_drop): Dropout(p=0.1, inplace=False)
      )
      (drop_path): Identity()
      (norm2): LayerNorm((768,), eps=1e-06, elementwise_affine=True)
      (mlp): Mlp(
        (fc1): Linear(in_features=768, out_features=3072, bias=True)
        (act): GELU(approximate=none)
        (fc2): Linear(in_features=3072, out_features=768, bias=True)
        (drop): Dropout(p=0.1, inplace=False)
      )
    )
    (2): Block(
      (norm1): LayerNorm((768,), eps=1e-06, elementwise_affine=True)
      (attn): Attention(
        (qkv): Linear(in_features=768, out_features=2304, bias=True)
        (attn_drop): Dropout(p=0.0, inplace=False)
        (proj): Linear(in_features=768, out_features=768, bias=True)
        (proj_drop): Dropout(p=0.1, inplace=False)
      )
      (drop_path): Identity()
      (norm2): LayerNorm((768,), eps=1e-06, elementwise_affine=True)
      (mlp): Mlp(
        (fc1): Linear(in_features=768, out_features=3072, bias=True)
        (act): GELU(approximate=none)
        (fc2): Linear(in_features=3072, out_features=768, bias=True)
        (drop): Dropout(p=0.1, inplace=False)
      )
    )
    (3): Block(
      (norm1): LayerNorm((768,), eps=1e-06, elementwise_affine=True)
      (attn): Attention(
        (qkv): Linear(in_features=768, out_features=2304, bias=True)
        (attn_drop): Dropout(p=0.0, inplace=False)
        (proj): Linear(in_features=768, out_features=768, bias=True)
        (proj_drop): Dropout(p=0.1, inplace=False)
      )
      (drop_path): Identity()
      (norm2): LayerNorm((768,), eps=1e-06, elementwise_affine=True)
      (mlp): Mlp(
        (fc1): Linear(in_features=768, out_features=3072, bias=True)
        (act): GELU(approximate=none)
        (fc2): Linear(in_features=3072, out_features=768, bias=True)
        (drop): Dropout(p=0.1, inplace=False)
      )
    )
    (4): Block(
      (norm1): LayerNorm((768,), eps=1e-06, elementwise_affine=True)
      (attn): Attention(
        (qkv): Linear(in_features=768, out_features=2304, bias=True)
        (attn_drop): Dropout(p=0.0, inplace=False)
        (proj): Linear(in_features=768, out_features=768, bias=True)
        (proj_drop): Dropout(p=0.1, inplace=False)
      )
      (drop_path): Identity()
      (norm2): LayerNorm((768,), eps=1e-06, elementwise_affine=True)
      (mlp): Mlp(
        (fc1): Linear(in_features=768, out_features=3072, bias=True)
        (act): GELU(approximate=none)
        (fc2): Linear(in_features=3072, out_features=768, bias=True)
        (drop): Dropout(p=0.1, inplace=False)
      )
    )
    (5): Block(
      (norm1): LayerNorm((768,), eps=1e-06, elementwise_affine=True)
      (attn): Attention(
        (qkv): Linear(in_features=768, out_features=2304, bias=True)
        (attn_drop): Dropout(p=0.0, inplace=False)
        (proj): Linear(in_features=768, out_features=768, bias=True)
        (proj_drop): Dropout(p=0.1, inplace=False)
      )
      (drop_path): Identity()
      (norm2): LayerNorm((768,), eps=1e-06, elementwise_affine=True)
      (mlp): Mlp(
        (fc1): Linear(in_features=768, out_features=3072, bias=True)
        (act): GELU(approximate=none)
        (fc2): Linear(in_features=3072, out_features=768, bias=True)
        (drop): Dropout(p=0.1, inplace=False)
      )
    )
    (6): Block(
      (norm1): LayerNorm((768,), eps=1e-06, elementwise_affine=True)
      (attn): Attention(
        (qkv): Linear(in_features=768, out_features=2304, bias=True)
        (attn_drop): Dropout(p=0.0, inplace=False)
        (proj): Linear(in_features=768, out_features=768, bias=True)
        (proj_drop): Dropout(p=0.1, inplace=False)
      )
      (drop_path): Identity()
      (norm2): LayerNorm((768,), eps=1e-06, elementwise_affine=True)
      (mlp): Mlp(
        (fc1): Linear(in_features=768, out_features=3072, bias=True)
        (act): GELU(approximate=none)
        (fc2): Linear(in_features=3072, out_features=768, bias=True)
        (drop): Dropout(p=0.1, inplace=False)
      )
    )
    (7): Block(
      (norm1): LayerNorm((768,), eps=1e-06, elementwise_affine=True)
      (attn): Attention(
        (qkv): Linear(in_features=768, out_features=2304, bias=True)
        (attn_drop): Dropout(p=0.0, inplace=False)
        (proj): Linear(in_features=768, out_features=768, bias=True)
        (proj_drop): Dropout(p=0.1, inplace=False)
      )
      (drop_path): Identity()
      (norm2): LayerNorm((768,), eps=1e-06, elementwise_affine=True)
      (mlp): Mlp(
        (fc1): Linear(in_features=768, out_features=3072, bias=True)
        (act): GELU(approximate=none)
        (fc2): Linear(in_features=3072, out_features=768, bias=True)
        (drop): Dropout(p=0.1, inplace=False)
      )
    )
    (8): Block(
      (norm1): LayerNorm((768,), eps=1e-06, elementwise_affine=True)
      (attn): Attention(
        (qkv): Linear(in_features=768, out_features=2304, bias=True)
        (attn_drop): Dropout(p=0.0, inplace=False)
        (proj): Linear(in_features=768, out_features=768, bias=True)
        (proj_drop): Dropout(p=0.1, inplace=False)
      )
      (drop_path): Identity()
      (norm2): LayerNorm((768,), eps=1e-06, elementwise_affine=True)
      (mlp): Mlp(
        (fc1): Linear(in_features=768, out_features=3072, bias=True)
        (act): GELU(approximate=none)
        (fc2): Linear(in_features=3072, out_features=768, bias=True)
        (drop): Dropout(p=0.1, inplace=False)
      )
    )
    (9): Block(
      (norm1): LayerNorm((768,), eps=1e-06, elementwise_affine=True)
      (attn): Attention(
        (qkv): Linear(in_features=768, out_features=2304, bias=True)
        (attn_drop): Dropout(p=0.0, inplace=False)
        (proj): Linear(in_features=768, out_features=768, bias=True)
        (proj_drop): Dropout(p=0.1, inplace=False)
      )
      (drop_path): Identity()
      (norm2): LayerNorm((768,), eps=1e-06, elementwise_affine=True)
      (mlp): Mlp(
        (fc1): Linear(in_features=768, out_features=3072, bias=True)
        (act): GELU(approximate=none)
        (fc2): Linear(in_features=3072, out_features=768, bias=True)
        (drop): Dropout(p=0.1, inplace=False)
      )
    )
    (10): Block(
      (norm1): LayerNorm((768,), eps=1e-06, elementwise_affine=True)
      (attn): Attention(
        (qkv): Linear(in_features=768, out_features=2304, bias=True)
        (attn_drop): Dropout(p=0.0, inplace=False)
        (proj): Linear(in_features=768, out_features=768, bias=True)
        (proj_drop): Dropout(p=0.1, inplace=False)
      )
      (drop_path): Identity()
      (norm2): LayerNorm((768,), eps=1e-06, elementwise_affine=True)
      (mlp): Mlp(
        (fc1): Linear(in_features=768, out_features=3072, bias=True)
        (act): GELU(approximate=none)
        (fc2): Linear(in_features=3072, out_features=768, bias=True)
        (drop): Dropout(p=0.1, inplace=False)
      )
    )
    (11): Block(
      (norm1): LayerNorm((768,), eps=1e-06, elementwise_affine=True)
      (attn): Attention(
        (qkv): Linear(in_features=768, out_features=2304, bias=True)
        (attn_drop): Dropout(p=0.0, inplace=False)
        (proj): Linear(in_features=768, out_features=768, bias=True)
        (proj_drop): Dropout(p=0.1, inplace=False)
      )
      (drop_path): Identity()
      (norm2): LayerNorm((768,), eps=1e-06, elementwise_affine=True)
      (mlp): Mlp(
        (fc1): Linear(in_features=768, out_features=3072, bias=True)
        (act): GELU(approximate=none)
        (fc2): Linear(in_features=3072, out_features=768, bias=True)
        (drop): Dropout(p=0.1, inplace=False)
      )
    )
  )
  (norm): LayerNorm((768,), eps=1e-06, elementwise_affine=True)
)
4 PatchEmbed(
  (proj): Conv2d(3, 768, kernel_size=(32, 32), stride=(32, 32))
)
5 Conv2d(3, 768, kernel_size=(32, 32), stride=(32, 32))
6 Dropout(p=0.1, inplace=False)
7 ModuleList(
  (0): Block(
    (norm1): LayerNorm((768,), eps=1e-06, elementwise_affine=True)
    (attn): Attention(
      (qkv): Linear(in_features=768, out_features=2304, bias=True)
      (attn_drop): Dropout(p=0.0, inplace=False)
      (proj): Linear(in_features=768, out_features=768, bias=True)
      (proj_drop): Dropout(p=0.1, inplace=False)
    )
    (drop_path): Identity()
    (norm2): LayerNorm((768,), eps=1e-06, elementwise_affine=True)
    (mlp): Mlp(
      (fc1): Linear(in_features=768, out_features=3072, bias=True)
      (act): GELU(approximate=none)
      (fc2): Linear(in_features=3072, out_features=768, bias=True)
      (drop): Dropout(p=0.1, inplace=False)
    )
  )
  (1): Block(
    (norm1): LayerNorm((768,), eps=1e-06, elementwise_affine=True)
    (attn): Attention(
      (qkv): Linear(in_features=768, out_features=2304, bias=True)
      (attn_drop): Dropout(p=0.0, inplace=False)
      (proj): Linear(in_features=768, out_features=768, bias=True)
      (proj_drop): Dropout(p=0.1, inplace=False)
    )
    (drop_path): Identity()
    (norm2): LayerNorm((768,), eps=1e-06, elementwise_affine=True)
    (mlp): Mlp(
      (fc1): Linear(in_features=768, out_features=3072, bias=True)
      (act): GELU(approximate=none)
      (fc2): Linear(in_features=3072, out_features=768, bias=True)
      (drop): Dropout(p=0.1, inplace=False)
    )
  )
  (2): Block(
    (norm1): LayerNorm((768,), eps=1e-06, elementwise_affine=True)
    (attn): Attention(
      (qkv): Linear(in_features=768, out_features=2304, bias=True)
      (attn_drop): Dropout(p=0.0, inplace=False)
      (proj): Linear(in_features=768, out_features=768, bias=True)
      (proj_drop): Dropout(p=0.1, inplace=False)
    )
    (drop_path): Identity()
    (norm2): LayerNorm((768,), eps=1e-06, elementwise_affine=True)
    (mlp): Mlp(
      (fc1): Linear(in_features=768, out_features=3072, bias=True)
      (act): GELU(approximate=none)
      (fc2): Linear(in_features=3072, out_features=768, bias=True)
      (drop): Dropout(p=0.1, inplace=False)
    )
  )
  (3): Block(
    (norm1): LayerNorm((768,), eps=1e-06, elementwise_affine=True)
    (attn): Attention(
      (qkv): Linear(in_features=768, out_features=2304, bias=True)
      (attn_drop): Dropout(p=0.0, inplace=False)
      (proj): Linear(in_features=768, out_features=768, bias=True)
      (proj_drop): Dropout(p=0.1, inplace=False)
    )
    (drop_path): Identity()
    (norm2): LayerNorm((768,), eps=1e-06, elementwise_affine=True)
    (mlp): Mlp(
      (fc1): Linear(in_features=768, out_features=3072, bias=True)
      (act): GELU(approximate=none)
      (fc2): Linear(in_features=3072, out_features=768, bias=True)
      (drop): Dropout(p=0.1, inplace=False)
    )
  )
  (4): Block(
    (norm1): LayerNorm((768,), eps=1e-06, elementwise_affine=True)
    (attn): Attention(
      (qkv): Linear(in_features=768, out_features=2304, bias=True)
      (attn_drop): Dropout(p=0.0, inplace=False)
      (proj): Linear(in_features=768, out_features=768, bias=True)
      (proj_drop): Dropout(p=0.1, inplace=False)
    )
    (drop_path): Identity()
    (norm2): LayerNorm((768,), eps=1e-06, elementwise_affine=True)
    (mlp): Mlp(
      (fc1): Linear(in_features=768, out_features=3072, bias=True)
      (act): GELU(approximate=none)
      (fc2): Linear(in_features=3072, out_features=768, bias=True)
      (drop): Dropout(p=0.1, inplace=False)
    )
  )
  (5): Block(
    (norm1): LayerNorm((768,), eps=1e-06, elementwise_affine=True)
    (attn): Attention(
      (qkv): Linear(in_features=768, out_features=2304, bias=True)
      (attn_drop): Dropout(p=0.0, inplace=False)
      (proj): Linear(in_features=768, out_features=768, bias=True)
      (proj_drop): Dropout(p=0.1, inplace=False)
    )
    (drop_path): Identity()
    (norm2): LayerNorm((768,), eps=1e-06, elementwise_affine=True)
    (mlp): Mlp(
      (fc1): Linear(in_features=768, out_features=3072, bias=True)
      (act): GELU(approximate=none)
      (fc2): Linear(in_features=3072, out_features=768, bias=True)
      (drop): Dropout(p=0.1, inplace=False)
    )
  )
  (6): Block(
    (norm1): LayerNorm((768,), eps=1e-06, elementwise_affine=True)
    (attn): Attention(
      (qkv): Linear(in_features=768, out_features=2304, bias=True)
      (attn_drop): Dropout(p=0.0, inplace=False)
      (proj): Linear(in_features=768, out_features=768, bias=True)
      (proj_drop): Dropout(p=0.1, inplace=False)
    )
    (drop_path): Identity()
    (norm2): LayerNorm((768,), eps=1e-06, elementwise_affine=True)
    (mlp): Mlp(
      (fc1): Linear(in_features=768, out_features=3072, bias=True)
      (act): GELU(approximate=none)
      (fc2): Linear(in_features=3072, out_features=768, bias=True)
      (drop): Dropout(p=0.1, inplace=False)
    )
  )
  (7): Block(
    (norm1): LayerNorm((768,), eps=1e-06, elementwise_affine=True)
    (attn): Attention(
      (qkv): Linear(in_features=768, out_features=2304, bias=True)
      (attn_drop): Dropout(p=0.0, inplace=False)
      (proj): Linear(in_features=768, out_features=768, bias=True)
      (proj_drop): Dropout(p=0.1, inplace=False)
    )
    (drop_path): Identity()
    (norm2): LayerNorm((768,), eps=1e-06, elementwise_affine=True)
    (mlp): Mlp(
      (fc1): Linear(in_features=768, out_features=3072, bias=True)
      (act): GELU(approximate=none)
      (fc2): Linear(in_features=3072, out_features=768, bias=True)
      (drop): Dropout(p=0.1, inplace=False)
    )
  )
  (8): Block(
    (norm1): LayerNorm((768,), eps=1e-06, elementwise_affine=True)
    (attn): Attention(
      (qkv): Linear(in_features=768, out_features=2304, bias=True)
      (attn_drop): Dropout(p=0.0, inplace=False)
      (proj): Linear(in_features=768, out_features=768, bias=True)
      (proj_drop): Dropout(p=0.1, inplace=False)
    )
    (drop_path): Identity()
    (norm2): LayerNorm((768,), eps=1e-06, elementwise_affine=True)
    (mlp): Mlp(
      (fc1): Linear(in_features=768, out_features=3072, bias=True)
      (act): GELU(approximate=none)
      (fc2): Linear(in_features=3072, out_features=768, bias=True)
      (drop): Dropout(p=0.1, inplace=False)
    )
  )
  (9): Block(
    (norm1): LayerNorm((768,), eps=1e-06, elementwise_affine=True)
    (attn): Attention(
      (qkv): Linear(in_features=768, out_features=2304, bias=True)
      (attn_drop): Dropout(p=0.0, inplace=False)
      (proj): Linear(in_features=768, out_features=768, bias=True)
      (proj_drop): Dropout(p=0.1, inplace=False)
    )
    (drop_path): Identity()
    (norm2): LayerNorm((768,), eps=1e-06, elementwise_affine=True)
    (mlp): Mlp(
      (fc1): Linear(in_features=768, out_features=3072, bias=True)
      (act): GELU(approximate=none)
      (fc2): Linear(in_features=3072, out_features=768, bias=True)
      (drop): Dropout(p=0.1, inplace=False)
    )
  )
  (10): Block(
    (norm1): LayerNorm((768,), eps=1e-06, elementwise_affine=True)
    (attn): Attention(
      (qkv): Linear(in_features=768, out_features=2304, bias=True)
      (attn_drop): Dropout(p=0.0, inplace=False)
      (proj): Linear(in_features=768, out_features=768, bias=True)
      (proj_drop): Dropout(p=0.1, inplace=False)
    )
    (drop_path): Identity()
    (norm2): LayerNorm((768,), eps=1e-06, elementwise_affine=True)
    (mlp): Mlp(
      (fc1): Linear(in_features=768, out_features=3072, bias=True)
      (act): GELU(approximate=none)
      (fc2): Linear(in_features=3072, out_features=768, bias=True)
      (drop): Dropout(p=0.1, inplace=False)
    )
  )
  (11): Block(
    (norm1): LayerNorm((768,), eps=1e-06, elementwise_affine=True)
    (attn): Attention(
      (qkv): Linear(in_features=768, out_features=2304, bias=True)
      (attn_drop): Dropout(p=0.0, inplace=False)
      (proj): Linear(in_features=768, out_features=768, bias=True)
      (proj_drop): Dropout(p=0.1, inplace=False)
    )
    (drop_path): Identity()
    (norm2): LayerNorm((768,), eps=1e-06, elementwise_affine=True)
    (mlp): Mlp(
      (fc1): Linear(in_features=768, out_features=3072, bias=True)
      (act): GELU(approximate=none)
      (fc2): Linear(in_features=3072, out_features=768, bias=True)
      (drop): Dropout(p=0.1, inplace=False)
    )
  )
)
8 Block(
  (norm1): LayerNorm((768,), eps=1e-06, elementwise_affine=True)
  (attn): Attention(
    (qkv): Linear(in_features=768, out_features=2304, bias=True)
    (attn_drop): Dropout(p=0.0, inplace=False)
    (proj): Linear(in_features=768, out_features=768, bias=True)
    (proj_drop): Dropout(p=0.1, inplace=False)
  )
  (drop_path): Identity()
  (norm2): LayerNorm((768,), eps=1e-06, elementwise_affine=True)
  (mlp): Mlp(
    (fc1): Linear(in_features=768, out_features=3072, bias=True)
    (act): GELU(approximate=none)
    (fc2): Linear(in_features=3072, out_features=768, bias=True)
    (drop): Dropout(p=0.1, inplace=False)
  )
)
9 LayerNorm((768,), eps=1e-06, elementwise_affine=True)
10 Attention(
  (qkv): Linear(in_features=768, out_features=2304, bias=True)
  (attn_drop): Dropout(p=0.0, inplace=False)
  (proj): Linear(in_features=768, out_features=768, bias=True)
  (proj_drop): Dropout(p=0.1, inplace=False)
)
11 Linear(in_features=768, out_features=2304, bias=True)
12 Dropout(p=0.0, inplace=False)
13 Linear(in_features=768, out_features=768, bias=True)
14 Dropout(p=0.1, inplace=False)
15 Identity()
16 LayerNorm((768,), eps=1e-06, elementwise_affine=True)
17 Mlp(
  (fc1): Linear(in_features=768, out_features=3072, bias=True)
  (act): GELU(approximate=none)
  (fc2): Linear(in_features=3072, out_features=768, bias=True)
  (drop): Dropout(p=0.1, inplace=False)
)
18 Linear(in_features=768, out_features=3072, bias=True)
19 GELU(approximate=none)
20 Linear(in_features=3072, out_features=768, bias=True)
21 Dropout(p=0.1, inplace=False)
22 Block(
  (norm1): LayerNorm((768,), eps=1e-06, elementwise_affine=True)
  (attn): Attention(
    (qkv): Linear(in_features=768, out_features=2304, bias=True)
    (attn_drop): Dropout(p=0.0, inplace=False)
    (proj): Linear(in_features=768, out_features=768, bias=True)
    (proj_drop): Dropout(p=0.1, inplace=False)
  )
  (drop_path): Identity()
  (norm2): LayerNorm((768,), eps=1e-06, elementwise_affine=True)
  (mlp): Mlp(
    (fc1): Linear(in_features=768, out_features=3072, bias=True)
    (act): GELU(approximate=none)
    (fc2): Linear(in_features=3072, out_features=768, bias=True)
    (drop): Dropout(p=0.1, inplace=False)
  )
)
23 LayerNorm((768,), eps=1e-06, elementwise_affine=True)
24 Attention(
  (qkv): Linear(in_features=768, out_features=2304, bias=True)
  (attn_drop): Dropout(p=0.0, inplace=False)
  (proj): Linear(in_features=768, out_features=768, bias=True)
  (proj_drop): Dropout(p=0.1, inplace=False)
)
25 Linear(in_features=768, out_features=2304, bias=True)
26 Dropout(p=0.0, inplace=False)
27 Linear(in_features=768, out_features=768, bias=True)
28 Dropout(p=0.1, inplace=False)
29 Identity()
30 LayerNorm((768,), eps=1e-06, elementwise_affine=True)
31 Mlp(
  (fc1): Linear(in_features=768, out_features=3072, bias=True)
  (act): GELU(approximate=none)
  (fc2): Linear(in_features=3072, out_features=768, bias=True)
  (drop): Dropout(p=0.1, inplace=False)
)
32 Linear(in_features=768, out_features=3072, bias=True)
33 GELU(approximate=none)
34 Linear(in_features=3072, out_features=768, bias=True)
35 Dropout(p=0.1, inplace=False)
36 Block(
  (norm1): LayerNorm((768,), eps=1e-06, elementwise_affine=True)
  (attn): Attention(
    (qkv): Linear(in_features=768, out_features=2304, bias=True)
    (attn_drop): Dropout(p=0.0, inplace=False)
    (proj): Linear(in_features=768, out_features=768, bias=True)
    (proj_drop): Dropout(p=0.1, inplace=False)
  )
  (drop_path): Identity()
  (norm2): LayerNorm((768,), eps=1e-06, elementwise_affine=True)
  (mlp): Mlp(
    (fc1): Linear(in_features=768, out_features=3072, bias=True)
    (act): GELU(approximate=none)
    (fc2): Linear(in_features=3072, out_features=768, bias=True)
    (drop): Dropout(p=0.1, inplace=False)
  )
)
37 LayerNorm((768,), eps=1e-06, elementwise_affine=True)
38 Attention(
  (qkv): Linear(in_features=768, out_features=2304, bias=True)
  (attn_drop): Dropout(p=0.0, inplace=False)
  (proj): Linear(in_features=768, out_features=768, bias=True)
  (proj_drop): Dropout(p=0.1, inplace=False)
)
39 Linear(in_features=768, out_features=2304, bias=True)
40 Dropout(p=0.0, inplace=False)
41 Linear(in_features=768, out_features=768, bias=True)
42 Dropout(p=0.1, inplace=False)
43 Identity()
44 LayerNorm((768,), eps=1e-06, elementwise_affine=True)
45 Mlp(
  (fc1): Linear(in_features=768, out_features=3072, bias=True)
  (act): GELU(approximate=none)
  (fc2): Linear(in_features=3072, out_features=768, bias=True)
  (drop): Dropout(p=0.1, inplace=False)
)
46 Linear(in_features=768, out_features=3072, bias=True)
47 GELU(approximate=none)
48 Linear(in_features=3072, out_features=768, bias=True)
49 Dropout(p=0.1, inplace=False)
50 Block(
  (norm1): LayerNorm((768,), eps=1e-06, elementwise_affine=True)
  (attn): Attention(
    (qkv): Linear(in_features=768, out_features=2304, bias=True)
    (attn_drop): Dropout(p=0.0, inplace=False)
    (proj): Linear(in_features=768, out_features=768, bias=True)
    (proj_drop): Dropout(p=0.1, inplace=False)
  )
  (drop_path): Identity()
  (norm2): LayerNorm((768,), eps=1e-06, elementwise_affine=True)
  (mlp): Mlp(
    (fc1): Linear(in_features=768, out_features=3072, bias=True)
    (act): GELU(approximate=none)
    (fc2): Linear(in_features=3072, out_features=768, bias=True)
    (drop): Dropout(p=0.1, inplace=False)
  )
)
51 LayerNorm((768,), eps=1e-06, elementwise_affine=True)
52 Attention(
  (qkv): Linear(in_features=768, out_features=2304, bias=True)
  (attn_drop): Dropout(p=0.0, inplace=False)
  (proj): Linear(in_features=768, out_features=768, bias=True)
  (proj_drop): Dropout(p=0.1, inplace=False)
)
53 Linear(in_features=768, out_features=2304, bias=True)
54 Dropout(p=0.0, inplace=False)
55 Linear(in_features=768, out_features=768, bias=True)
56 Dropout(p=0.1, inplace=False)
57 Identity()
58 LayerNorm((768,), eps=1e-06, elementwise_affine=True)
59 Mlp(
  (fc1): Linear(in_features=768, out_features=3072, bias=True)
  (act): GELU(approximate=none)
  (fc2): Linear(in_features=3072, out_features=768, bias=True)
  (drop): Dropout(p=0.1, inplace=False)
)
60 Linear(in_features=768, out_features=3072, bias=True)
61 GELU(approximate=none)
62 Linear(in_features=3072, out_features=768, bias=True)
63 Dropout(p=0.1, inplace=False)
64 Block(
  (norm1): LayerNorm((768,), eps=1e-06, elementwise_affine=True)
  (attn): Attention(
    (qkv): Linear(in_features=768, out_features=2304, bias=True)
    (attn_drop): Dropout(p=0.0, inplace=False)
    (proj): Linear(in_features=768, out_features=768, bias=True)
    (proj_drop): Dropout(p=0.1, inplace=False)
  )
  (drop_path): Identity()
  (norm2): LayerNorm((768,), eps=1e-06, elementwise_affine=True)
  (mlp): Mlp(
    (fc1): Linear(in_features=768, out_features=3072, bias=True)
    (act): GELU(approximate=none)
    (fc2): Linear(in_features=3072, out_features=768, bias=True)
    (drop): Dropout(p=0.1, inplace=False)
  )
)
65 LayerNorm((768,), eps=1e-06, elementwise_affine=True)
66 Attention(
  (qkv): Linear(in_features=768, out_features=2304, bias=True)
  (attn_drop): Dropout(p=0.0, inplace=False)
  (proj): Linear(in_features=768, out_features=768, bias=True)
  (proj_drop): Dropout(p=0.1, inplace=False)
)
67 Linear(in_features=768, out_features=2304, bias=True)
68 Dropout(p=0.0, inplace=False)
69 Linear(in_features=768, out_features=768, bias=True)
70 Dropout(p=0.1, inplace=False)
71 Identity()
72 LayerNorm((768,), eps=1e-06, elementwise_affine=True)
73 Mlp(
  (fc1): Linear(in_features=768, out_features=3072, bias=True)
  (act): GELU(approximate=none)
  (fc2): Linear(in_features=3072, out_features=768, bias=True)
  (drop): Dropout(p=0.1, inplace=False)
)
74 Linear(in_features=768, out_features=3072, bias=True)
75 GELU(approximate=none)
76 Linear(in_features=3072, out_features=768, bias=True)
77 Dropout(p=0.1, inplace=False)
78 Block(
  (norm1): LayerNorm((768,), eps=1e-06, elementwise_affine=True)
  (attn): Attention(
    (qkv): Linear(in_features=768, out_features=2304, bias=True)
    (attn_drop): Dropout(p=0.0, inplace=False)
    (proj): Linear(in_features=768, out_features=768, bias=True)
    (proj_drop): Dropout(p=0.1, inplace=False)
  )
  (drop_path): Identity()
  (norm2): LayerNorm((768,), eps=1e-06, elementwise_affine=True)
  (mlp): Mlp(
    (fc1): Linear(in_features=768, out_features=3072, bias=True)
    (act): GELU(approximate=none)
    (fc2): Linear(in_features=3072, out_features=768, bias=True)
    (drop): Dropout(p=0.1, inplace=False)
  )
)
79 LayerNorm((768,), eps=1e-06, elementwise_affine=True)
80 Attention(
  (qkv): Linear(in_features=768, out_features=2304, bias=True)
  (attn_drop): Dropout(p=0.0, inplace=False)
  (proj): Linear(in_features=768, out_features=768, bias=True)
  (proj_drop): Dropout(p=0.1, inplace=False)
)
81 Linear(in_features=768, out_features=2304, bias=True)
82 Dropout(p=0.0, inplace=False)
83 Linear(in_features=768, out_features=768, bias=True)
84 Dropout(p=0.1, inplace=False)
85 Identity()
86 LayerNorm((768,), eps=1e-06, elementwise_affine=True)
87 Mlp(
  (fc1): Linear(in_features=768, out_features=3072, bias=True)
  (act): GELU(approximate=none)
  (fc2): Linear(in_features=3072, out_features=768, bias=True)
  (drop): Dropout(p=0.1, inplace=False)
)
88 Linear(in_features=768, out_features=3072, bias=True)
89 GELU(approximate=none)
90 Linear(in_features=3072, out_features=768, bias=True)
91 Dropout(p=0.1, inplace=False)
92 Block(
  (norm1): LayerNorm((768,), eps=1e-06, elementwise_affine=True)
  (attn): Attention(
    (qkv): Linear(in_features=768, out_features=2304, bias=True)
    (attn_drop): Dropout(p=0.0, inplace=False)
    (proj): Linear(in_features=768, out_features=768, bias=True)
    (proj_drop): Dropout(p=0.1, inplace=False)
  )
  (drop_path): Identity()
  (norm2): LayerNorm((768,), eps=1e-06, elementwise_affine=True)
  (mlp): Mlp(
    (fc1): Linear(in_features=768, out_features=3072, bias=True)
    (act): GELU(approximate=none)
    (fc2): Linear(in_features=3072, out_features=768, bias=True)
    (drop): Dropout(p=0.1, inplace=False)
  )
)
93 LayerNorm((768,), eps=1e-06, elementwise_affine=True)
94 Attention(
  (qkv): Linear(in_features=768, out_features=2304, bias=True)
  (attn_drop): Dropout(p=0.0, inplace=False)
  (proj): Linear(in_features=768, out_features=768, bias=True)
  (proj_drop): Dropout(p=0.1, inplace=False)
)
95 Linear(in_features=768, out_features=2304, bias=True)
96 Dropout(p=0.0, inplace=False)
97 Linear(in_features=768, out_features=768, bias=True)
98 Dropout(p=0.1, inplace=False)
99 Identity()
100 LayerNorm((768,), eps=1e-06, elementwise_affine=True)
101 Mlp(
  (fc1): Linear(in_features=768, out_features=3072, bias=True)
  (act): GELU(approximate=none)
  (fc2): Linear(in_features=3072, out_features=768, bias=True)
  (drop): Dropout(p=0.1, inplace=False)
)
102 Linear(in_features=768, out_features=3072, bias=True)
103 GELU(approximate=none)
104 Linear(in_features=3072, out_features=768, bias=True)
105 Dropout(p=0.1, inplace=False)
106 Block(
  (norm1): LayerNorm((768,), eps=1e-06, elementwise_affine=True)
  (attn): Attention(
    (qkv): Linear(in_features=768, out_features=2304, bias=True)
    (attn_drop): Dropout(p=0.0, inplace=False)
    (proj): Linear(in_features=768, out_features=768, bias=True)
    (proj_drop): Dropout(p=0.1, inplace=False)
  )
  (drop_path): Identity()
  (norm2): LayerNorm((768,), eps=1e-06, elementwise_affine=True)
  (mlp): Mlp(
    (fc1): Linear(in_features=768, out_features=3072, bias=True)
    (act): GELU(approximate=none)
    (fc2): Linear(in_features=3072, out_features=768, bias=True)
    (drop): Dropout(p=0.1, inplace=False)
  )
)
107 LayerNorm((768,), eps=1e-06, elementwise_affine=True)
108 Attention(
  (qkv): Linear(in_features=768, out_features=2304, bias=True)
  (attn_drop): Dropout(p=0.0, inplace=False)
  (proj): Linear(in_features=768, out_features=768, bias=True)
  (proj_drop): Dropout(p=0.1, inplace=False)
)
109 Linear(in_features=768, out_features=2304, bias=True)
110 Dropout(p=0.0, inplace=False)
111 Linear(in_features=768, out_features=768, bias=True)
112 Dropout(p=0.1, inplace=False)
113 Identity()
114 LayerNorm((768,), eps=1e-06, elementwise_affine=True)
115 Mlp(
  (fc1): Linear(in_features=768, out_features=3072, bias=True)
  (act): GELU(approximate=none)
  (fc2): Linear(in_features=3072, out_features=768, bias=True)
  (drop): Dropout(p=0.1, inplace=False)
)
116 Linear(in_features=768, out_features=3072, bias=True)
117 GELU(approximate=none)
118 Linear(in_features=3072, out_features=768, bias=True)
119 Dropout(p=0.1, inplace=False)
120 Block(
  (norm1): LayerNorm((768,), eps=1e-06, elementwise_affine=True)
  (attn): Attention(
    (qkv): Linear(in_features=768, out_features=2304, bias=True)
    (attn_drop): Dropout(p=0.0, inplace=False)
    (proj): Linear(in_features=768, out_features=768, bias=True)
    (proj_drop): Dropout(p=0.1, inplace=False)
  )
  (drop_path): Identity()
  (norm2): LayerNorm((768,), eps=1e-06, elementwise_affine=True)
  (mlp): Mlp(
    (fc1): Linear(in_features=768, out_features=3072, bias=True)
    (act): GELU(approximate=none)
    (fc2): Linear(in_features=3072, out_features=768, bias=True)
    (drop): Dropout(p=0.1, inplace=False)
  )
)
121 LayerNorm((768,), eps=1e-06, elementwise_affine=True)
122 Attention(
  (qkv): Linear(in_features=768, out_features=2304, bias=True)
  (attn_drop): Dropout(p=0.0, inplace=False)
  (proj): Linear(in_features=768, out_features=768, bias=True)
  (proj_drop): Dropout(p=0.1, inplace=False)
)
123 Linear(in_features=768, out_features=2304, bias=True)
124 Dropout(p=0.0, inplace=False)
125 Linear(in_features=768, out_features=768, bias=True)
126 Dropout(p=0.1, inplace=False)
127 Identity()
128 LayerNorm((768,), eps=1e-06, elementwise_affine=True)
129 Mlp(
  (fc1): Linear(in_features=768, out_features=3072, bias=True)
  (act): GELU(approximate=none)
  (fc2): Linear(in_features=3072, out_features=768, bias=True)
  (drop): Dropout(p=0.1, inplace=False)
)
130 Linear(in_features=768, out_features=3072, bias=True)
131 GELU(approximate=none)
132 Linear(in_features=3072, out_features=768, bias=True)
133 Dropout(p=0.1, inplace=False)
134 Block(
  (norm1): LayerNorm((768,), eps=1e-06, elementwise_affine=True)
  (attn): Attention(
    (qkv): Linear(in_features=768, out_features=2304, bias=True)
    (attn_drop): Dropout(p=0.0, inplace=False)
    (proj): Linear(in_features=768, out_features=768, bias=True)
    (proj_drop): Dropout(p=0.1, inplace=False)
  )
  (drop_path): Identity()
  (norm2): LayerNorm((768,), eps=1e-06, elementwise_affine=True)
  (mlp): Mlp(
    (fc1): Linear(in_features=768, out_features=3072, bias=True)
    (act): GELU(approximate=none)
    (fc2): Linear(in_features=3072, out_features=768, bias=True)
    (drop): Dropout(p=0.1, inplace=False)
  )
)
135 LayerNorm((768,), eps=1e-06, elementwise_affine=True)
136 Attention(
  (qkv): Linear(in_features=768, out_features=2304, bias=True)
  (attn_drop): Dropout(p=0.0, inplace=False)
  (proj): Linear(in_features=768, out_features=768, bias=True)
  (proj_drop): Dropout(p=0.1, inplace=False)
)
137 Linear(in_features=768, out_features=2304, bias=True)
138 Dropout(p=0.0, inplace=False)
139 Linear(in_features=768, out_features=768, bias=True)
140 Dropout(p=0.1, inplace=False)
141 Identity()
142 LayerNorm((768,), eps=1e-06, elementwise_affine=True)
143 Mlp(
  (fc1): Linear(in_features=768, out_features=3072, bias=True)
  (act): GELU(approximate=none)
  (fc2): Linear(in_features=3072, out_features=768, bias=True)
  (drop): Dropout(p=0.1, inplace=False)
)
144 Linear(in_features=768, out_features=3072, bias=True)
145 GELU(approximate=none)
146 Linear(in_features=3072, out_features=768, bias=True)
147 Dropout(p=0.1, inplace=False)
148 Block(
  (norm1): LayerNorm((768,), eps=1e-06, elementwise_affine=True)
  (attn): Attention(
    (qkv): Linear(in_features=768, out_features=2304, bias=True)
    (attn_drop): Dropout(p=0.0, inplace=False)
    (proj): Linear(in_features=768, out_features=768, bias=True)
    (proj_drop): Dropout(p=0.1, inplace=False)
  )
  (drop_path): Identity()
  (norm2): LayerNorm((768,), eps=1e-06, elementwise_affine=True)
  (mlp): Mlp(
    (fc1): Linear(in_features=768, out_features=3072, bias=True)
    (act): GELU(approximate=none)
    (fc2): Linear(in_features=3072, out_features=768, bias=True)
    (drop): Dropout(p=0.1, inplace=False)
  )
)
149 LayerNorm((768,), eps=1e-06, elementwise_affine=True)
150 Attention(
  (qkv): Linear(in_features=768, out_features=2304, bias=True)
  (attn_drop): Dropout(p=0.0, inplace=False)
  (proj): Linear(in_features=768, out_features=768, bias=True)
  (proj_drop): Dropout(p=0.1, inplace=False)
)
151 Linear(in_features=768, out_features=2304, bias=True)
152 Dropout(p=0.0, inplace=False)
153 Linear(in_features=768, out_features=768, bias=True)
154 Dropout(p=0.1, inplace=False)
155 Identity()
156 LayerNorm((768,), eps=1e-06, elementwise_affine=True)
157 Mlp(
  (fc1): Linear(in_features=768, out_features=3072, bias=True)
  (act): GELU(approximate=none)
  (fc2): Linear(in_features=3072, out_features=768, bias=True)
  (drop): Dropout(p=0.1, inplace=False)
)
158 Linear(in_features=768, out_features=3072, bias=True)
159 GELU(approximate=none)
160 Linear(in_features=3072, out_features=768, bias=True)
161 Dropout(p=0.1, inplace=False)
162 Block(
  (norm1): LayerNorm((768,), eps=1e-06, elementwise_affine=True)
  (attn): Attention(
    (qkv): Linear(in_features=768, out_features=2304, bias=True)
    (attn_drop): Dropout(p=0.0, inplace=False)
    (proj): Linear(in_features=768, out_features=768, bias=True)
    (proj_drop): Dropout(p=0.1, inplace=False)
  )
  (drop_path): Identity()
  (norm2): LayerNorm((768,), eps=1e-06, elementwise_affine=True)
  (mlp): Mlp(
    (fc1): Linear(in_features=768, out_features=3072, bias=True)
    (act): GELU(approximate=none)
    (fc2): Linear(in_features=3072, out_features=768, bias=True)
    (drop): Dropout(p=0.1, inplace=False)
  )
)
163 LayerNorm((768,), eps=1e-06, elementwise_affine=True)
164 Attention(
  (qkv): Linear(in_features=768, out_features=2304, bias=True)
  (attn_drop): Dropout(p=0.0, inplace=False)
  (proj): Linear(in_features=768, out_features=768, bias=True)
  (proj_drop): Dropout(p=0.1, inplace=False)
)
165 Linear(in_features=768, out_features=2304, bias=True)
166 Dropout(p=0.0, inplace=False)
167 Linear(in_features=768, out_features=768, bias=True)
168 Dropout(p=0.1, inplace=False)
169 Identity()
170 LayerNorm((768,), eps=1e-06, elementwise_affine=True)
171 Mlp(
  (fc1): Linear(in_features=768, out_features=3072, bias=True)
  (act): GELU(approximate=none)
  (fc2): Linear(in_features=3072, out_features=768, bias=True)
  (drop): Dropout(p=0.1, inplace=False)
)
172 Linear(in_features=768, out_features=3072, bias=True)
173 GELU(approximate=none)
174 Linear(in_features=3072, out_features=768, bias=True)
175 Dropout(p=0.1, inplace=False)
176 LayerNorm((768,), eps=1e-06, elementwise_affine=True)
177 Linear(in_features=768, out_features=768, bias=True)
178 Tanh()
179 Pooler(
  (dense): Linear(in_features=768, out_features=768, bias=True)
  (activation): Tanh()
)
180 Linear(in_features=768, out_features=768, bias=True)
181 Tanh()
182 Linear(in_features=768, out_features=1, bias=True)
wandb: Tracking run with wandb version 0.13.1
wandb: W&B syncing is set to `offline` in this directory.  
wandb: Run `wandb online` or set WANDB_MODE=online to enable cloud syncing.
cuda: NVIDIA GeForce RTX 3090
…
